…
I0429 22:12:02.366806   566 net.cpp:356] data -> label
I0429 22:12:02.366823   566 net.cpp:96] Setting up data
I0429 22:12:02.366834   566 image_data_layer.cpp:31] Opening file /home/ubuntu/Kaggle/trainnet2exp1.csv
I0429 22:12:02.374327   566 image_data_layer.cpp:43] Shuffling data
I0429 22:12:02.375819   566 image_data_layer.cpp:48] A total of 17124 images.
"I0429 22:12:02.382400   566 image_data_layer.cpp:78] output data size: 200,3,227,227"
I0429 22:12:02.382437   566 base_data_layer.cpp:36] Loading mean file fromdata/ilsvrc12/imagenet_mean.binaryproto
I0429 22:12:02.412170   566 net.cpp:103] Top shape: 200 3 227 227 (30917400)
I0429 22:12:02.412215   566 net.cpp:103] Top shape: 200 1 1 1 (200)
I0429 22:12:02.412238   566 net.cpp:67] Creating Layer conv1
I0429 22:12:02.412247   566 net.cpp:394] conv1 <- data
I0429 22:12:02.412274   566 net.cpp:356] conv1 -> conv1
I0429 22:12:02.412292   566 net.cpp:96] Setting up conv1
I0429 22:12:02.435973   566 net.cpp:103] Top shape: 200 96 55 55 (58080000)
I0429 22:12:02.436035   566 net.cpp:67] Creating Layer relu1
I0429 22:12:02.436045   566 net.cpp:394] relu1 <- conv1
I0429 22:12:02.436054   566 net.cpp:345] relu1 -> conv1 (in-place)
I0429 22:12:02.436066   566 net.cpp:96] Setting up relu1
I0429 22:12:02.436080   566 net.cpp:103] Top shape: 200 96 55 55 (58080000)
I0429 22:12:02.436089   566 net.cpp:67] Creating Layer pool1
I0429 22:12:02.436095   566 net.cpp:394] pool1 <- conv1
I0429 22:12:02.436103   566 net.cpp:356] pool1 -> pool1
I0429 22:12:02.436112   566 net.cpp:96] Setting up pool1
I0429 22:12:02.436136   566 net.cpp:103] Top shape: 200 96 27 27 (13996800)
I0429 22:12:02.436148   566 net.cpp:67] Creating Layer norm1
I0429 22:12:02.436156   566 net.cpp:394] norm1 <- pool1
I0429 22:12:02.436162   566 net.cpp:356] norm1 -> norm1
I0429 22:12:02.436172   566 net.cpp:96] Setting up norm1
I0429 22:12:02.436182   566 net.cpp:103] Top shape: 200 96 27 27 (13996800)
I0429 22:12:02.436195   566 net.cpp:67] Creating Layer conv2
I0429 22:12:02.436202   566 net.cpp:394] conv2 <- norm1
I0429 22:12:02.436209   566 net.cpp:356] conv2 -> conv2
I0429 22:12:02.436218   566 net.cpp:96] Setting up conv2
I0429 22:12:02.446599   566 net.cpp:103] Top shape: 200 256 27 27 (37324800)
I0429 22:12:02.446625   566 net.cpp:67] Creating Layer relu2
I0429 22:12:02.446632   566 net.cpp:394] relu2 <- conv2
I0429 22:12:02.446640   566 net.cpp:345] relu2 -> conv2 (in-place)
I0429 22:12:02.446648   566 net.cpp:96] Setting up relu2
I0429 22:12:02.446656   566 net.cpp:103] Top shape: 200 256 27 27 (37324800)
I0429 22:12:02.446683   566 net.cpp:67] Creating Layer pool2
I0429 22:12:02.446689   566 net.cpp:394] pool2 <- conv2
I0429 22:12:02.446696   566 net.cpp:356] pool2 -> pool2
I0429 22:12:02.446704   566 net.cpp:96] Setting up pool2
I0429 22:12:02.446713   566 net.cpp:103] Top shape: 200 256 13 13 (8652800)
I0429 22:12:02.446724   566 net.cpp:67] Creating Layer norm2
I0429 22:12:02.446730   566 net.cpp:394] norm2 <- pool2
I0429 22:12:02.446740   566 net.cpp:356] norm2 -> norm2
I0429 22:12:02.446748   566 net.cpp:96] Setting up norm2
I0429 22:12:02.446754   566 net.cpp:103] Top shape: 200 256 13 13 (8652800)
I0429 22:12:02.446763   566 net.cpp:67] Creating Layer conv3
I0429 22:12:02.446768   566 net.cpp:394] conv3 <- norm2
I0429 22:12:02.446780   566 net.cpp:356] conv3 -> conv3
I0429 22:12:02.446789   566 net.cpp:96] Setting up conv3
I0429 22:12:02.476064   566 net.cpp:103] Top shape: 200 384 13 13 (12979200)
I0429 22:12:02.476099   566 net.cpp:67] Creating Layer relu3
I0429 22:12:02.476106   566 net.cpp:394] relu3 <- conv3
I0429 22:12:02.476117   566 net.cpp:345] relu3 -> conv3 (in-place)
I0429 22:12:02.476126   566 net.cpp:96] Setting up relu3
I0429 22:12:02.476135   566 net.cpp:103] Top shape: 200 384 13 13 (12979200)
I0429 22:12:02.476145   566 net.cpp:67] Creating Layer conv4
I0429 22:12:02.476161   566 net.cpp:394] conv4 <- conv3
I0429 22:12:02.476171   566 net.cpp:356] conv4 -> conv4
I0429 22:12:02.476181   566 net.cpp:96] Setting up conv4
I0429 22:12:02.498620   566 net.cpp:103] Top shape: 200 384 13 13 (12979200)
I0429 22:12:02.498646   566 net.cpp:67] Creating Layer relu4
I0429 22:12:02.498654   566 net.cpp:394] relu4 <- conv4
I0429 22:12:02.498662   566 net.cpp:345] relu4 -> conv4 (in-place)
I0429 22:12:02.498672   566 net.cpp:96] Setting up relu4
I0429 22:12:02.498679   566 net.cpp:103] Top shape: 200 384 13 13 (12979200)
I0429 22:12:02.498692   566 net.cpp:67] Creating Layer conv5
I0429 22:12:02.498698   566 net.cpp:394] conv5 <- conv4
I0429 22:12:02.498706   566 net.cpp:356] conv5 -> conv5
I0429 22:12:02.498714   566 net.cpp:96] Setting up conv5
I0429 22:12:02.513677   566 net.cpp:103] Top shape: 200 256 13 13 (8652800)
I0429 22:12:02.513701   566 net.cpp:67] Creating Layer relu5
I0429 22:12:02.513708   566 net.cpp:394] relu5 <- conv5
I0429 22:12:02.513718   566 net.cpp:345] relu5 -> conv5 (in-place)
I0429 22:12:02.513727   566 net.cpp:96] Setting up relu5
I0429 22:12:02.513736   566 net.cpp:103] Top shape: 200 256 13 13 (8652800)
I0429 22:12:02.513744   566 net.cpp:67] Creating Layer pool5
I0429 22:12:02.513751   566 net.cpp:394] pool5 <- conv5
I0429 22:12:02.513761   566 net.cpp:356] pool5 -> pool5
I0429 22:12:02.513768   566 net.cpp:96] Setting up pool5
I0429 22:12:02.513778   566 net.cpp:103] Top shape: 200 256 6 6 (1843200)
I0429 22:12:02.513789   566 net.cpp:67] Creating Layer fc6
I0429 22:12:02.513795   566 net.cpp:394] fc6 <- pool5
I0429 22:12:02.513805   566 net.cpp:356] fc6 -> fc6
I0429 22:12:02.513814   566 net.cpp:96] Setting up fc6
I0429 22:12:03.737012   566 net.cpp:103] Top shape: 200 4096 1 1 (819200)
I0429 22:12:03.737074   566 net.cpp:67] Creating Layer relu6
I0429 22:12:03.737082   566 net.cpp:394] relu6 <- fc6
I0429 22:12:03.737092   566 net.cpp:345] relu6 -> fc6 (in-place)
I0429 22:12:03.737103   566 net.cpp:96] Setting up relu6
I0429 22:12:03.737125   566 net.cpp:103] Top shape: 200 4096 1 1 (819200)
I0429 22:12:03.737134   566 net.cpp:67] Creating Layer drop6
I0429 22:12:03.737140   566 net.cpp:394] drop6 <- fc6
I0429 22:12:03.737155   566 net.cpp:345] drop6 -> fc6 (in-place)
I0429 22:12:03.737164   566 net.cpp:96] Setting up drop6
I0429 22:12:03.737175   566 net.cpp:103] Top shape: 200 4096 1 1 (819200)
I0429 22:12:03.737185   566 net.cpp:67] Creating Layer fc7
I0429 22:12:03.737190   566 net.cpp:394] fc7 <- fc6
I0429 22:12:03.737198   566 net.cpp:356] fc7 -> fc7
I0429 22:12:03.737207   566 net.cpp:96] Setting up fc7
I0429 22:12:04.277642   566 net.cpp:103] Top shape: 200 4096 1 1 (819200)
I0429 22:12:04.277698   566 net.cpp:67] Creating Layer relu7
I0429 22:12:04.277725   566 net.cpp:394] relu7 <- fc7
I0429 22:12:04.277739   566 net.cpp:345] relu7 -> fc7 (in-place)
I0429 22:12:04.277750   566 net.cpp:96] Setting up relu7
I0429 22:12:04.277770   566 net.cpp:103] Top shape: 200 4096 1 1 (819200)
I0429 22:12:04.277778   566 net.cpp:67] Creating Layer drop7
I0429 22:12:04.277784   566 net.cpp:394] drop7 <- fc7
I0429 22:12:04.277793   566 net.cpp:345] drop7 -> fc7 (in-place)
I0429 22:12:04.277801   566 net.cpp:96] Setting up drop7
I0429 22:12:04.277807   566 net.cpp:103] Top shape: 200 4096 1 1 (819200)
I0429 22:12:04.277817   566 net.cpp:67] Creating Layer fc8_flickr
I0429 22:12:04.277822   566 net.cpp:394] fc8_flickr <- fc7
I0429 22:12:04.277829   566 net.cpp:356] fc8_flickr -> fc8_flickr
I0429 22:12:04.277838   566 net.cpp:96] Setting up fc8_flickr
I0429 22:12:04.278409   566 net.cpp:103] Top shape: 200 4 1 1 (800)
I0429 22:12:04.278424   566 net.cpp:67] Creating Layer loss
I0429 22:12:04.278430   566 net.cpp:394] loss <- fc8_flickr
I0429 22:12:04.278436   566 net.cpp:394] loss <- label
I0429 22:12:04.278447   566 net.cpp:356] loss -> (automatic)
I0429 22:12:04.278455   566 net.cpp:96] Setting up loss
I0429 22:12:04.278461   566 net.cpp:103] Top shape: 1 1 1 1 (1)
I0429 22:12:04.278466   566 net.cpp:109]     with loss weight 1
I0429 22:12:04.278517   566 net.cpp:170] loss needs backward computation.
I0429 22:12:04.278524   566 net.cpp:170] fc8_flickr needs backward computation.
I0429 22:12:04.278529   566 net.cpp:170] drop7 needs backward computation.
I0429 22:12:04.278534   566 net.cpp:170] relu7 needs backward computation.
I0429 22:12:04.278539   566 net.cpp:170] fc7 needs backward computation.
…
I0429 22:12:04.279655   566 net.cpp:67] Creating Layer data
I0429 22:12:04.279665   566 net.cpp:356] data -> data
I0429 22:12:04.279676   566 net.cpp:356] data -> label
I0429 22:12:04.279685   566 net.cpp:96] Setting up data
I0429 22:12:04.279692   566 image_data_layer.cpp:31] Opening file /home/ubuntu/Kaggle/valnet2exp1.csv
I0429 22:12:04.281357   566 image_data_layer.cpp:48] A total of 4044 images.
"I0429 22:12:04.284224   566 image_data_layer.cpp:78] output data size: 200,3,227,227"
I0429 22:12:04.284245   566 base_data_layer.cpp:36] Loading mean file fromdata/ilsvrc12/imagenet_mean.binaryproto
I0429 22:12:04.314589   566 net.cpp:103] Top shape: 200 3 227 227 (30917400)
I0429 22:12:04.314631   566 net.cpp:103] Top shape: 200 1 1 1 (200)
I0429 22:12:04.314648   566 net.cpp:67] Creating Layer label_data_1_split
I0429 22:12:04.314656   566 net.cpp:394] label_data_1_split <- label
I0429 22:12:04.314666   566 net.cpp:356] label_data_1_split -> label_data_1_split_0
I0429 22:12:04.314685   566 net.cpp:356] label_data_1_split -> label_data_1_split_1
I0429 22:12:04.314708   566 net.cpp:96] Setting up label_data_1_split
I0429 22:12:04.314733   566 net.cpp:103] Top shape: 200 1 1 1 (200)
I0429 22:12:04.314739   566 net.cpp:103] Top shape: 200 1 1 1 (200)
I0429 22:12:04.314750   566 net.cpp:67] Creating Layer conv1
I0429 22:12:04.314756   566 net.cpp:394] conv1 <- data
I0429 22:12:04.314765   566 net.cpp:356] conv1 -> conv1
I0429 22:12:04.314775   566 net.cpp:96] Setting up conv1
I0429 22:12:04.316031   566 net.cpp:103] Top shape: 200 96 55 55 (58080000)
I0429 22:12:04.316056   566 net.cpp:67] Creating Layer relu1
I0429 22:12:04.316063   566 net.cpp:394] relu1 <- conv1
I0429 22:12:04.316071   566 net.cpp:345] relu1 -> conv1 (in-place)
I0429 22:12:04.316079   566 net.cpp:96] Setting up relu1
I0429 22:12:04.316088   566 net.cpp:103] Top shape: 200 96 55 55 (58080000)
I0429 22:12:04.316102   566 net.cpp:67] Creating Layer pool1
I0429 22:12:04.316107   566 net.cpp:394] pool1 <- conv1
I0429 22:12:04.316114   566 net.cpp:356] pool1 -> pool1
I0429 22:12:04.316123   566 net.cpp:96] Setting up pool1
I0429 22:12:04.316133   566 net.cpp:103] Top shape: 200 96 27 27 (13996800)
I0429 22:12:04.316143   566 net.cpp:67] Creating Layer norm1
I0429 22:12:04.316149   566 net.cpp:394] norm1 <- pool1
I0429 22:12:04.316157   566 net.cpp:356] norm1 -> norm1
I0429 22:12:04.316165   566 net.cpp:96] Setting up norm1
I0429 22:12:04.316171   566 net.cpp:103] Top shape: 200 96 27 27 (13996800)
I0429 22:12:04.316180   566 net.cpp:67] Creating Layer conv2
I0429 22:12:04.316185   566 net.cpp:394] conv2 <- norm1
I0429 22:12:04.316193   566 net.cpp:356] conv2 -> conv2
I0429 22:12:04.316201   566 net.cpp:96] Setting up conv2
I0429 22:12:04.326444   566 net.cpp:103] Top shape: 200 256 27 27 (37324800)
I0429 22:12:04.326467   566 net.cpp:67] Creating Layer relu2
I0429 22:12:04.326474   566 net.cpp:394] relu2 <- conv2
I0429 22:12:04.326483   566 net.cpp:345] relu2 -> conv2 (in-place)
I0429 22:12:04.326490   566 net.cpp:96] Setting up relu2
I0429 22:12:04.326498   566 net.cpp:103] Top shape: 200 256 27 27 (37324800)
I0429 22:12:04.326511   566 net.cpp:67] Creating Layer pool2
I0429 22:12:04.326519   566 net.cpp:394] pool2 <- conv2
I0429 22:12:04.326525   566 net.cpp:356] pool2 -> pool2
I0429 22:12:04.326534   566 net.cpp:96] Setting up pool2
I0429 22:12:04.326544   566 net.cpp:103] Top shape: 200 256 13 13 (8652800)
I0429 22:12:04.326553   566 net.cpp:67] Creating Layer norm2
I0429 22:12:04.326560   566 net.cpp:394] norm2 <- pool2
I0429 22:12:04.326566   566 net.cpp:356] norm2 -> norm2
I0429 22:12:04.326575   566 net.cpp:96] Setting up norm2
I0429 22:12:04.326581   566 net.cpp:103] Top shape: 200 256 13 13 (8652800)
I0429 22:12:04.326591   566 net.cpp:67] Creating Layer conv3
I0429 22:12:04.326620   566 net.cpp:394] conv3 <- norm2
I0429 22:12:04.326630   566 net.cpp:356] conv3 -> conv3
I0429 22:12:04.326639   566 net.cpp:96] Setting up conv3
I0429 22:12:04.355890   566 net.cpp:103] Top shape: 200 384 13 13 (12979200)
I0429 22:12:04.355918   566 net.cpp:67] Creating Layer relu3
I0429 22:12:04.355926   566 net.cpp:394] relu3 <- conv3
I0429 22:12:04.355933   566 net.cpp:345] relu3 -> conv3 (in-place)
I0429 22:12:04.355942   566 net.cpp:96] Setting up relu3
I0429 22:12:04.355949   566 net.cpp:103] Top shape: 200 384 13 13 (12979200)
I0429 22:12:04.355962   566 net.cpp:67] Creating Layer conv4
I0429 22:12:04.355967   566 net.cpp:394] conv4 <- conv3
I0429 22:12:04.355974   566 net.cpp:356] conv4 -> conv4
I0429 22:12:04.355983   566 net.cpp:96] Setting up conv4
I0429 22:12:04.378413   566 net.cpp:103] Top shape: 200 384 13 13 (12979200)
I0429 22:12:04.378439   566 net.cpp:67] Creating Layer relu4
I0429 22:12:04.378448   566 net.cpp:394] relu4 <- conv4
I0429 22:12:04.378456   566 net.cpp:345] relu4 -> conv4 (in-place)
I0429 22:12:04.378465   566 net.cpp:96] Setting up relu4
I0429 22:12:04.378473   566 net.cpp:103] Top shape: 200 384 13 13 (12979200)
I0429 22:12:04.378482   566 net.cpp:67] Creating Layer conv5
I0429 22:12:04.378489   566 net.cpp:394] conv5 <- conv4
I0429 22:12:04.378509   566 net.cpp:356] conv5 -> conv5
I0429 22:12:04.378518   566 net.cpp:96] Setting up conv5
I0429 22:12:04.393611   566 net.cpp:103] Top shape: 200 256 13 13 (8652800)
I0429 22:12:04.393640   566 net.cpp:67] Creating Layer relu5
I0429 22:12:04.393647   566 net.cpp:394] relu5 <- conv5
I0429 22:12:04.393656   566 net.cpp:345] relu5 -> conv5 (in-place)
I0429 22:12:04.393666   566 net.cpp:96] Setting up relu5
I0429 22:12:04.393676   566 net.cpp:103] Top shape: 200 256 13 13 (8652800)
I0429 22:12:04.393687   566 net.cpp:67] Creating Layer pool5
I0429 22:12:04.393692   566 net.cpp:394] pool5 <- conv5
I0429 22:12:04.393699   566 net.cpp:356] pool5 -> pool5
I0429 22:12:04.393708   566 net.cpp:96] Setting up pool5
I0429 22:12:04.393718   566 net.cpp:103] Top shape: 200 256 6 6 (1843200)
I0429 22:12:04.393728   566 net.cpp:67] Creating Layer fc6
I0429 22:12:04.393734   566 net.cpp:394] fc6 <- pool5
I0429 22:12:04.393743   566 net.cpp:356] fc6 -> fc6
I0429 22:12:04.393750   566 net.cpp:96] Setting up fc6
I0429 22:12:05.617271   566 net.cpp:103] Top shape: 200 4096 1 1 (819200)
I0429 22:12:05.617329   566 net.cpp:67] Creating Layer relu6
I0429 22:12:05.617337   566 net.cpp:394] relu6 <- fc6
I0429 22:12:05.617350   566 net.cpp:345] relu6 -> fc6 (in-place)
I0429 22:12:05.617362   566 net.cpp:96] Setting up relu6
I0429 22:12:05.617383   566 net.cpp:103] Top shape: 200 4096 1 1 (819200)
I0429 22:12:05.617391   566 net.cpp:67] Creating Layer drop6
I0429 22:12:05.617398   566 net.cpp:394] drop6 <- fc6
I0429 22:12:05.617404   566 net.cpp:345] drop6 -> fc6 (in-place)
I0429 22:12:05.617413   566 net.cpp:96] Setting up drop6
I0429 22:12:05.617419   566 net.cpp:103] Top shape: 200 4096 1 1 (819200)
I0429 22:12:05.617427   566 net.cpp:67] Creating Layer fc7
I0429 22:12:05.617434   566 net.cpp:394] fc7 <- fc6
I0429 22:12:05.617441   566 net.cpp:356] fc7 -> fc7
I0429 22:12:05.617450   566 net.cpp:96] Setting up fc7
I0429 22:12:06.160655   566 net.cpp:103] Top shape: 200 4096 1 1 (819200)
I0429 22:12:06.160715   566 net.cpp:67] Creating Layer relu7
I0429 22:12:06.160723   566 net.cpp:394] relu7 <- fc7
I0429 22:12:06.160737   566 net.cpp:345] relu7 -> fc7 (in-place)
I0429 22:12:06.160748   566 net.cpp:96] Setting up relu7
I0429 22:12:06.160769   566 net.cpp:103] Top shape: 200 4096 1 1 (819200)
I0429 22:12:06.160778   566 net.cpp:67] Creating Layer drop7
I0429 22:12:06.160784   566 net.cpp:394] drop7 <- fc7
I0429 22:12:06.160790   566 net.cpp:345] drop7 -> fc7 (in-place)
I0429 22:12:06.160799   566 net.cpp:96] Setting up drop7
I0429 22:12:06.160804   566 net.cpp:103] Top shape: 200 4096 1 1 (819200)
I0429 22:12:06.160814   566 net.cpp:67] Creating Layer fc8_flickr
I0429 22:12:06.160820   566 net.cpp:394] fc8_flickr <- fc7
I0429 22:12:06.160830   566 net.cpp:356] fc8_flickr -> fc8_flickr
I0429 22:12:06.160864   566 net.cpp:96] Setting up fc8_flickr
I0429 22:12:06.161453   566 net.cpp:103] Top shape: 200 4 1 1 (800)
I0429 22:12:06.161469   566 net.cpp:67] Creating Layer fc8_flickr_fc8_flickr_0_split
I0429 22:12:06.161476   566 net.cpp:394] fc8_flickr_fc8_flickr_0_split <- fc8_flickr
I0429 22:12:06.161484   566 net.cpp:356] fc8_flickr_fc8_flickr_0_split -> fc8_flickr_fc8_flickr_0_split_0
I0429 22:12:06.161495   566 net.cpp:356] fc8_flickr_fc8_flickr_0_split -> fc8_flickr_fc8_flickr_0_split_1
I0429 22:12:06.161504   566 net.cpp:96] Setting up fc8_flickr_fc8_flickr_0_split
I0429 22:12:06.161510   566 net.cpp:103] Top shape: 200 4 1 1 (800)
I0429 22:12:06.161516   566 net.cpp:103] Top shape: 200 4 1 1 (800)
I0429 22:12:06.161525   566 net.cpp:67] Creating Layer loss
I0429 22:12:06.161530   566 net.cpp:394] loss <- fc8_flickr_fc8_flickr_0_split_0
I0429 22:12:06.161537   566 net.cpp:394] loss <- label_data_1_split_0
I0429 22:12:06.161545   566 net.cpp:356] loss -> (automatic)
I0429 22:12:06.161551   566 net.cpp:96] Setting up loss
I0429 22:12:06.161557   566 net.cpp:103] Top shape: 1 1 1 1 (1)
I0429 22:12:06.161563   566 net.cpp:109]     with loss weight 1
I0429 22:12:06.161593   566 net.cpp:67] Creating Layer accuracy
I0429 22:12:06.161612   566 net.cpp:394] accuracy <- fc8_flickr_fc8_flickr_0_split_1
I0429 22:12:06.161620   566 net.cpp:394] accuracy <- label_data_1_split_1
I0429 22:12:06.161628   566 net.cpp:356] accuracy -> accuracy
I0429 22:12:06.161636   566 net.cpp:96] Setting up accuracy
I0429 22:12:06.161643   566 net.cpp:103] Top shape: 1 1 1 1 (1)
I0429 22:12:06.161648   566 net.cpp:172] accuracy does not need backward computation.
I0429 22:12:06.161654   566 net.cpp:170] loss needs backward computation.
I0429 22:12:06.161660   566 net.cpp:170] fc8_flickr_fc8_flickr_0_split needs backward computation.
I0429 22:12:06.161665   566 net.cpp:170] fc8_flickr needs backward computation.
I0429 22:12:06.161671   566 net.cpp:170] drop7 needs backward computation.
…
I0430 16:35:17.858822 11833 net.cpp:356] data -> label
I0430 16:35:17.858839 11833 net.cpp:96] Setting up data
I0430 16:35:17.858851 11833 image_data_layer.cpp:31] Opening file /home/ubuntu/Kaggle/trainnet2exp1_prep.csv
I0430 16:35:17.924814 11833 image_data_layer.cpp:43] Shuffling data
I0430 16:35:17.938940 11833 image_data_layer.cpp:48] A total of 136992 images.
"I0430 16:35:17.945545 11833 image_data_layer.cpp:78] output data size: 200,3,227,227"
I0430 16:35:17.945587 11833 base_data_layer.cpp:36] Loading mean file fromdata/ilsvrc12/imagenet_mean.binaryproto
I0430 16:35:18.047518 11833 net.cpp:103] Top shape: 200 3 227 227 (30917400)
I0430 16:35:18.047586 11833 net.cpp:103] Top shape: 200 1 1 1 (200)
I0430 16:35:18.047610 11833 net.cpp:67] Creating Layer conv1
I0430 16:35:18.047616 11833 net.cpp:394] conv1 <- data
I0430 16:35:18.047636 11833 net.cpp:356] conv1 -> conv1
I0430 16:35:18.047658 11833 net.cpp:96] Setting up conv1
I0430 16:35:18.071044 11833 net.cpp:103] Top shape: 200 96 55 55 (58080000)
I0430 16:35:18.071104 11833 net.cpp:67] Creating Layer relu1
I0430 16:35:18.071111 11833 net.cpp:394] relu1 <- conv1
I0430 16:35:18.071121 11833 net.cpp:345] relu1 -> conv1 (in-place)
I0430 16:35:18.071131 11833 net.cpp:96] Setting up relu1
I0430 16:35:18.071146 11833 net.cpp:103] Top shape: 200 96 55 55 (58080000)
I0430 16:35:18.071156 11833 net.cpp:67] Creating Layer pool1
I0430 16:35:18.071161 11833 net.cpp:394] pool1 <- conv1
I0430 16:35:18.071171 11833 net.cpp:356] pool1 -> pool1
I0430 16:35:18.071182 11833 net.cpp:96] Setting up pool1
I0430 16:35:18.071203 11833 net.cpp:103] Top shape: 200 96 27 27 (13996800)
I0430 16:35:18.071213 11833 net.cpp:67] Creating Layer norm1
I0430 16:35:18.071219 11833 net.cpp:394] norm1 <- pool1
I0430 16:35:18.071228 11833 net.cpp:356] norm1 -> norm1
I0430 16:35:18.071235 11833 net.cpp:96] Setting up norm1
I0430 16:35:18.071245 11833 net.cpp:103] Top shape: 200 96 27 27 (13996800)
I0430 16:35:18.071255 11833 net.cpp:67] Creating Layer conv2
I0430 16:35:18.071260 11833 net.cpp:394] conv2 <- norm1
I0430 16:35:18.071269 11833 net.cpp:356] conv2 -> conv2
I0430 16:35:18.071277 11833 net.cpp:96] Setting up conv2
I0430 16:35:18.081617 11833 net.cpp:103] Top shape: 200 256 27 27 (37324800)
I0430 16:35:18.081640 11833 net.cpp:67] Creating Layer relu2
I0430 16:35:18.081647 11833 net.cpp:394] relu2 <- conv2
I0430 16:35:18.081655 11833 net.cpp:345] relu2 -> conv2 (in-place)
I0430 16:35:18.081662 11833 net.cpp:96] Setting up relu2
I0430 16:35:18.081670 11833 net.cpp:103] Top shape: 200 256 27 27 (37324800)
I0430 16:35:18.081701 11833 net.cpp:67] Creating Layer pool2
I0430 16:35:18.081707 11833 net.cpp:394] pool2 <- conv2
I0430 16:35:18.081717 11833 net.cpp:356] pool2 -> pool2
I0430 16:35:18.081724 11833 net.cpp:96] Setting up pool2
I0430 16:35:18.081733 11833 net.cpp:103] Top shape: 200 256 13 13 (8652800)
I0430 16:35:18.081744 11833 net.cpp:67] Creating Layer norm2
I0430 16:35:18.081750 11833 net.cpp:394] norm2 <- pool2
I0430 16:35:18.081756 11833 net.cpp:356] norm2 -> norm2
I0430 16:35:18.081764 11833 net.cpp:96] Setting up norm2
I0430 16:35:18.081770 11833 net.cpp:103] Top shape: 200 256 13 13 (8652800)
I0430 16:35:18.081779 11833 net.cpp:67] Creating Layer conv3
I0430 16:35:18.081784 11833 net.cpp:394] conv3 <- norm2
I0430 16:35:18.081794 11833 net.cpp:356] conv3 -> conv3
I0430 16:35:18.081809 11833 net.cpp:96] Setting up conv3
I0430 16:35:18.111361 11833 net.cpp:103] Top shape: 200 384 13 13 (12979200)
I0430 16:35:18.111389 11833 net.cpp:67] Creating Layer relu3
I0430 16:35:18.111397 11833 net.cpp:394] relu3 <- conv3
I0430 16:35:18.111403 11833 net.cpp:345] relu3 -> conv3 (in-place)
I0430 16:35:18.111412 11833 net.cpp:96] Setting up relu3
I0430 16:35:18.111420 11833 net.cpp:103] Top shape: 200 384 13 13 (12979200)
I0430 16:35:18.111429 11833 net.cpp:67] Creating Layer conv4
I0430 16:35:18.111435 11833 net.cpp:394] conv4 <- conv3
I0430 16:35:18.111444 11833 net.cpp:356] conv4 -> conv4
I0430 16:35:18.111454 11833 net.cpp:96] Setting up conv4
I0430 16:35:18.133831 11833 net.cpp:103] Top shape: 200 384 13 13 (12979200)
I0430 16:35:18.133862 11833 net.cpp:67] Creating Layer relu4
I0430 16:35:18.133869 11833 net.cpp:394] relu4 <- conv4
I0430 16:35:18.133877 11833 net.cpp:345] relu4 -> conv4 (in-place)
I0430 16:35:18.133888 11833 net.cpp:96] Setting up relu4
I0430 16:35:18.133895 11833 net.cpp:103] Top shape: 200 384 13 13 (12979200)
I0430 16:35:18.133908 11833 net.cpp:67] Creating Layer conv5
I0430 16:35:18.133913 11833 net.cpp:394] conv5 <- conv4
I0430 16:35:18.133921 11833 net.cpp:356] conv5 -> conv5
I0430 16:35:18.133930 11833 net.cpp:96] Setting up conv5
I0430 16:35:18.148749 11833 net.cpp:103] Top shape: 200 256 13 13 (8652800)
I0430 16:35:18.148773 11833 net.cpp:67] Creating Layer relu5
I0430 16:35:18.148780 11833 net.cpp:394] relu5 <- conv5
I0430 16:35:18.148787 11833 net.cpp:345] relu5 -> conv5 (in-place)
I0430 16:35:18.148795 11833 net.cpp:96] Setting up relu5
I0430 16:35:18.148803 11833 net.cpp:103] Top shape: 200 256 13 13 (8652800)
I0430 16:35:18.148811 11833 net.cpp:67] Creating Layer pool5
I0430 16:35:18.148818 11833 net.cpp:394] pool5 <- conv5
I0430 16:35:18.148826 11833 net.cpp:356] pool5 -> pool5
I0430 16:35:18.148834 11833 net.cpp:96] Setting up pool5
I0430 16:35:18.148845 11833 net.cpp:103] Top shape: 200 256 6 6 (1843200)
I0430 16:35:18.148856 11833 net.cpp:67] Creating Layer fc6
I0430 16:35:18.148861 11833 net.cpp:394] fc6 <- pool5
I0430 16:35:18.148871 11833 net.cpp:356] fc6 -> fc6
I0430 16:35:18.148880 11833 net.cpp:96] Setting up fc6
I0430 16:35:19.432605 11833 net.cpp:103] Top shape: 200 4096 1 1 (819200)
I0430 16:35:19.432667 11833 net.cpp:67] Creating Layer relu6
I0430 16:35:19.432675 11833 net.cpp:394] relu6 <- fc6
I0430 16:35:19.432685 11833 net.cpp:345] relu6 -> fc6 (in-place)
I0430 16:35:19.432695 11833 net.cpp:96] Setting up relu6
I0430 16:35:19.432715 11833 net.cpp:103] Top shape: 200 4096 1 1 (819200)
I0430 16:35:19.432724 11833 net.cpp:67] Creating Layer drop6
I0430 16:35:19.432730 11833 net.cpp:394] drop6 <- fc6
I0430 16:35:19.432740 11833 net.cpp:345] drop6 -> fc6 (in-place)
I0430 16:35:19.432749 11833 net.cpp:96] Setting up drop6
I0430 16:35:19.432760 11833 net.cpp:103] Top shape: 200 4096 1 1 (819200)
I0430 16:35:19.432770 11833 net.cpp:67] Creating Layer fc7
I0430 16:35:19.432775 11833 net.cpp:394] fc7 <- fc6
I0430 16:35:19.432783 11833 net.cpp:356] fc7 -> fc7
I0430 16:35:19.432792 11833 net.cpp:96] Setting up fc7
I0430 16:35:20.014919 11833 net.cpp:103] Top shape: 200 4096 1 1 (819200)
I0430 16:35:20.014981 11833 net.cpp:67] Creating Layer relu7
I0430 16:35:20.015010 11833 net.cpp:394] relu7 <- fc7
I0430 16:35:20.015020 11833 net.cpp:345] relu7 -> fc7 (in-place)
I0430 16:35:20.015032 11833 net.cpp:96] Setting up relu7
I0430 16:35:20.015050 11833 net.cpp:103] Top shape: 200 4096 1 1 (819200)
I0430 16:35:20.015059 11833 net.cpp:67] Creating Layer drop7
I0430 16:35:20.015065 11833 net.cpp:394] drop7 <- fc7
I0430 16:35:20.015074 11833 net.cpp:345] drop7 -> fc7 (in-place)
I0430 16:35:20.015082 11833 net.cpp:96] Setting up drop7
I0430 16:35:20.015089 11833 net.cpp:103] Top shape: 200 4096 1 1 (819200)
I0430 16:35:20.015097 11833 net.cpp:67] Creating Layer fc8_flickr
I0430 16:35:20.015103 11833 net.cpp:394] fc8_flickr <- fc7
I0430 16:35:20.015111 11833 net.cpp:356] fc8_flickr -> fc8_flickr
I0430 16:35:20.015120 11833 net.cpp:96] Setting up fc8_flickr
I0430 16:35:20.015281 11833 net.cpp:103] Top shape: 200 1 1 1 (200)
I0430 16:35:20.015295 11833 net.cpp:67] Creating Layer loss
I0430 16:35:20.015313 11833 net.cpp:394] loss <- fc8_flickr
I0430 16:35:20.015321 11833 net.cpp:394] loss <- label
I0430 16:35:20.015329 11833 net.cpp:356] loss -> (automatic)
I0430 16:35:20.015336 11833 net.cpp:96] Setting up loss
I0430 16:35:20.015343 11833 net.cpp:103] Top shape: 1 1 1 1 (1)
I0430 16:35:20.015349 11833 net.cpp:109]     with loss weight 1
I0430 16:35:20.015393 11833 net.cpp:170] loss needs backward computation.
I0430 16:35:20.015401 11833 net.cpp:170] fc8_flickr needs backward computation.
I0430 16:35:20.015408 11833 net.cpp:170] drop7 needs backward computation.
I0430 16:35:20.015413 11833 net.cpp:170] relu7 needs backward computation.
I0430 16:35:20.015418 11833 net.cpp:170] fc7 needs backward computation.
…
I0430 16:35:20.016499 11833 net.cpp:67] Creating Layer data
I0430 16:35:20.016510 11833 net.cpp:356] data -> data
I0430 16:35:20.016520 11833 net.cpp:356] data -> label
I0430 16:35:20.016530 11833 net.cpp:96] Setting up data
I0430 16:35:20.016535 11833 image_data_layer.cpp:31] Opening file /home/ubuntu/Kaggle/valnet2exp1.csv
I0430 16:35:20.018259 11833 image_data_layer.cpp:48] A total of 4044 images.
"I0430 16:35:20.021800 11833 image_data_layer.cpp:78] output data size: 200,3,227,227"
I0430 16:35:20.021821 11833 base_data_layer.cpp:36] Loading mean file fromdata/ilsvrc12/imagenet_mean.binaryproto
I0430 16:35:20.132072 11833 net.cpp:103] Top shape: 200 3 227 227 (30917400)
I0430 16:35:20.132115 11833 net.cpp:103] Top shape: 200 1 1 1 (200)
I0430 16:35:20.132132 11833 net.cpp:67] Creating Layer label_data_1_split
I0430 16:35:20.132138 11833 net.cpp:394] label_data_1_split <- label
I0430 16:35:20.132149 11833 net.cpp:356] label_data_1_split -> label_data_1_split_0
I0430 16:35:20.132169 11833 net.cpp:356] label_data_1_split -> label_data_1_split_1
I0430 16:35:20.132177 11833 net.cpp:96] Setting up label_data_1_split
I0430 16:35:20.132205 11833 net.cpp:103] Top shape: 200 1 1 1 (200)
I0430 16:35:20.132212 11833 net.cpp:103] Top shape: 200 1 1 1 (200)
I0430 16:35:20.132225 11833 net.cpp:67] Creating Layer conv1
I0430 16:35:20.132230 11833 net.cpp:394] conv1 <- data
I0430 16:35:20.132239 11833 net.cpp:356] conv1 -> conv1
I0430 16:35:20.132249 11833 net.cpp:96] Setting up conv1
I0430 16:35:20.133477 11833 net.cpp:103] Top shape: 200 96 55 55 (58080000)
I0430 16:35:20.133501 11833 net.cpp:67] Creating Layer relu1
I0430 16:35:20.133507 11833 net.cpp:394] relu1 <- conv1
I0430 16:35:20.133514 11833 net.cpp:345] relu1 -> conv1 (in-place)
I0430 16:35:20.133522 11833 net.cpp:96] Setting up relu1
I0430 16:35:20.133530 11833 net.cpp:103] Top shape: 200 96 55 55 (58080000)
I0430 16:35:20.133540 11833 net.cpp:67] Creating Layer pool1
I0430 16:35:20.133546 11833 net.cpp:394] pool1 <- conv1
I0430 16:35:20.133553 11833 net.cpp:356] pool1 -> pool1
I0430 16:35:20.133561 11833 net.cpp:96] Setting up pool1
I0430 16:35:20.133571 11833 net.cpp:103] Top shape: 200 96 27 27 (13996800)
I0430 16:35:20.133580 11833 net.cpp:67] Creating Layer norm1
I0430 16:35:20.133585 11833 net.cpp:394] norm1 <- pool1
I0430 16:35:20.133592 11833 net.cpp:356] norm1 -> norm1
I0430 16:35:20.133601 11833 net.cpp:96] Setting up norm1
I0430 16:35:20.133608 11833 net.cpp:103] Top shape: 200 96 27 27 (13996800)
I0430 16:35:20.133617 11833 net.cpp:67] Creating Layer conv2
I0430 16:35:20.133623 11833 net.cpp:394] conv2 <- norm1
I0430 16:35:20.133630 11833 net.cpp:356] conv2 -> conv2
I0430 16:35:20.133638 11833 net.cpp:96] Setting up conv2
I0430 16:35:20.143862 11833 net.cpp:103] Top shape: 200 256 27 27 (37324800)
I0430 16:35:20.143887 11833 net.cpp:67] Creating Layer relu2
I0430 16:35:20.143894 11833 net.cpp:394] relu2 <- conv2
I0430 16:35:20.143901 11833 net.cpp:345] relu2 -> conv2 (in-place)
I0430 16:35:20.143909 11833 net.cpp:96] Setting up relu2
I0430 16:35:20.143918 11833 net.cpp:103] Top shape: 200 256 27 27 (37324800)
I0430 16:35:20.143929 11833 net.cpp:67] Creating Layer pool2
I0430 16:35:20.143935 11833 net.cpp:394] pool2 <- conv2
I0430 16:35:20.143942 11833 net.cpp:356] pool2 -> pool2
I0430 16:35:20.143954 11833 net.cpp:96] Setting up pool2
I0430 16:35:20.143964 11833 net.cpp:103] Top shape: 200 256 13 13 (8652800)
I0430 16:35:20.143971 11833 net.cpp:67] Creating Layer norm2
I0430 16:35:20.143976 11833 net.cpp:394] norm2 <- pool2
I0430 16:35:20.143983 11833 net.cpp:356] norm2 -> norm2
I0430 16:35:20.143990 11833 net.cpp:96] Setting up norm2
I0430 16:35:20.143996 11833 net.cpp:103] Top shape: 200 256 13 13 (8652800)
I0430 16:35:20.144007 11833 net.cpp:67] Creating Layer conv3
I0430 16:35:20.144029 11833 net.cpp:394] conv3 <- norm2
I0430 16:35:20.144039 11833 net.cpp:356] conv3 -> conv3
I0430 16:35:20.144047 11833 net.cpp:96] Setting up conv3
I0430 16:35:20.173768 11833 net.cpp:103] Top shape: 200 384 13 13 (12979200)
I0430 16:35:20.173802 11833 net.cpp:67] Creating Layer relu3
I0430 16:35:20.173810 11833 net.cpp:394] relu3 <- conv3
I0430 16:35:20.173818 11833 net.cpp:345] relu3 -> conv3 (in-place)
I0430 16:35:20.173826 11833 net.cpp:96] Setting up relu3
I0430 16:35:20.173835 11833 net.cpp:103] Top shape: 200 384 13 13 (12979200)
I0430 16:35:20.173847 11833 net.cpp:67] Creating Layer conv4
I0430 16:35:20.173853 11833 net.cpp:394] conv4 <- conv3
I0430 16:35:20.173862 11833 net.cpp:356] conv4 -> conv4
I0430 16:35:20.173871 11833 net.cpp:96] Setting up conv4
I0430 16:35:20.196477 11833 net.cpp:103] Top shape: 200 384 13 13 (12979200)
I0430 16:35:20.196517 11833 net.cpp:67] Creating Layer relu4
I0430 16:35:20.196524 11833 net.cpp:394] relu4 <- conv4
I0430 16:35:20.196532 11833 net.cpp:345] relu4 -> conv4 (in-place)
I0430 16:35:20.196540 11833 net.cpp:96] Setting up relu4
I0430 16:35:20.196549 11833 net.cpp:103] Top shape: 200 384 13 13 (12979200)
I0430 16:35:20.196558 11833 net.cpp:67] Creating Layer conv5
I0430 16:35:20.196564 11833 net.cpp:394] conv5 <- conv4
I0430 16:35:20.196574 11833 net.cpp:356] conv5 -> conv5
I0430 16:35:20.196583 11833 net.cpp:96] Setting up conv5
I0430 16:35:20.211614 11833 net.cpp:103] Top shape: 200 256 13 13 (8652800)
I0430 16:35:20.211640 11833 net.cpp:67] Creating Layer relu5
I0430 16:35:20.211648 11833 net.cpp:394] relu5 <- conv5
I0430 16:35:20.211658 11833 net.cpp:345] relu5 -> conv5 (in-place)
I0430 16:35:20.211666 11833 net.cpp:96] Setting up relu5
I0430 16:35:20.211675 11833 net.cpp:103] Top shape: 200 256 13 13 (8652800)
I0430 16:35:20.211686 11833 net.cpp:67] Creating Layer pool5
I0430 16:35:20.211691 11833 net.cpp:394] pool5 <- conv5
I0430 16:35:20.211699 11833 net.cpp:356] pool5 -> pool5
I0430 16:35:20.211707 11833 net.cpp:96] Setting up pool5
I0430 16:35:20.211717 11833 net.cpp:103] Top shape: 200 256 6 6 (1843200)
I0430 16:35:20.211730 11833 net.cpp:67] Creating Layer fc6
I0430 16:35:20.211735 11833 net.cpp:394] fc6 <- pool5
I0430 16:35:20.211745 11833 net.cpp:356] fc6 -> fc6
I0430 16:35:20.211753 11833 net.cpp:96] Setting up fc6
I0430 16:35:21.538664 11833 net.cpp:103] Top shape: 200 4096 1 1 (819200)
I0430 16:35:21.538722 11833 net.cpp:67] Creating Layer relu6
I0430 16:35:21.538730 11833 net.cpp:394] relu6 <- fc6
I0430 16:35:21.538743 11833 net.cpp:345] relu6 -> fc6 (in-place)
I0430 16:35:21.538753 11833 net.cpp:96] Setting up relu6
I0430 16:35:21.538774 11833 net.cpp:103] Top shape: 200 4096 1 1 (819200)
I0430 16:35:21.538782 11833 net.cpp:67] Creating Layer drop6
I0430 16:35:21.538789 11833 net.cpp:394] drop6 <- fc6
I0430 16:35:21.538794 11833 net.cpp:345] drop6 -> fc6 (in-place)
I0430 16:35:21.538802 11833 net.cpp:96] Setting up drop6
I0430 16:35:21.538808 11833 net.cpp:103] Top shape: 200 4096 1 1 (819200)
I0430 16:35:21.538818 11833 net.cpp:67] Creating Layer fc7
I0430 16:35:21.538823 11833 net.cpp:394] fc7 <- fc6
I0430 16:35:21.538831 11833 net.cpp:356] fc7 -> fc7
I0430 16:35:21.538841 11833 net.cpp:96] Setting up fc7
I0430 16:35:22.154423 11833 net.cpp:103] Top shape: 200 4096 1 1 (819200)
I0430 16:35:22.154482 11833 net.cpp:67] Creating Layer relu7
I0430 16:35:22.154490 11833 net.cpp:394] relu7 <- fc7
I0430 16:35:22.154503 11833 net.cpp:345] relu7 -> fc7 (in-place)
I0430 16:35:22.154515 11833 net.cpp:96] Setting up relu7
I0430 16:35:22.154534 11833 net.cpp:103] Top shape: 200 4096 1 1 (819200)
I0430 16:35:22.154543 11833 net.cpp:67] Creating Layer drop7
I0430 16:35:22.154548 11833 net.cpp:394] drop7 <- fc7
I0430 16:35:22.154556 11833 net.cpp:345] drop7 -> fc7 (in-place)
I0430 16:35:22.154562 11833 net.cpp:96] Setting up drop7
I0430 16:35:22.154569 11833 net.cpp:103] Top shape: 200 4096 1 1 (819200)
I0430 16:35:22.154582 11833 net.cpp:67] Creating Layer fc8_flickr
I0430 16:35:22.154587 11833 net.cpp:394] fc8_flickr <- fc7
I0430 16:35:22.154618 11833 net.cpp:356] fc8_flickr -> fc8_flickr
I0430 16:35:22.154631 11833 net.cpp:96] Setting up fc8_flickr
I0430 16:35:22.154786 11833 net.cpp:103] Top shape: 200 1 1 1 (200)
I0430 16:35:22.154798 11833 net.cpp:67] Creating Layer fc8_flickr_fc8_flickr_0_split
I0430 16:35:22.154803 11833 net.cpp:394] fc8_flickr_fc8_flickr_0_split <- fc8_flickr
I0430 16:35:22.154813 11833 net.cpp:356] fc8_flickr_fc8_flickr_0_split -> fc8_flickr_fc8_flickr_0_split_0
I0430 16:35:22.154821 11833 net.cpp:356] fc8_flickr_fc8_flickr_0_split -> fc8_flickr_fc8_flickr_0_split_1
I0430 16:35:22.154829 11833 net.cpp:96] Setting up fc8_flickr_fc8_flickr_0_split
I0430 16:35:22.154835 11833 net.cpp:103] Top shape: 200 1 1 1 (200)
I0430 16:35:22.154841 11833 net.cpp:103] Top shape: 200 1 1 1 (200)
I0430 16:35:22.154853 11833 net.cpp:67] Creating Layer loss
I0430 16:35:22.154865 11833 net.cpp:394] loss <- fc8_flickr_fc8_flickr_0_split_0
I0430 16:35:22.154872 11833 net.cpp:394] loss <- label_data_1_split_0
I0430 16:35:22.154881 11833 net.cpp:356] loss -> (automatic)
I0430 16:35:22.154891 11833 net.cpp:96] Setting up loss
I0430 16:35:22.154898 11833 net.cpp:103] Top shape: 1 1 1 1 (1)
I0430 16:35:22.154904 11833 net.cpp:109]     with loss weight 1
I0430 16:35:22.154924 11833 net.cpp:67] Creating Layer reg-loss
I0430 16:35:22.154929 11833 net.cpp:394] reg-loss <- fc8_flickr_fc8_flickr_0_split_1
I0430 16:35:22.154937 11833 net.cpp:394] reg-loss <- label_data_1_split_1
I0430 16:35:22.154943 11833 net.cpp:356] reg-loss -> reg-loss
I0430 16:35:22.154950 11833 net.cpp:96] Setting up reg-loss
I0430 16:35:22.154958 11833 net.cpp:103] Top shape: 1 1 1 1 (1)
I0430 16:35:22.154963 11833 net.cpp:109]     with loss weight 1
I0430 16:35:22.154969 11833 net.cpp:170] reg-loss needs backward computation.
I0430 16:35:22.154975 11833 net.cpp:170] loss needs backward computation.
I0430 16:35:22.154981 11833 net.cpp:170] fc8_flickr_fc8_flickr_0_split needs backward computation.
I0430 16:35:22.154986 11833 net.cpp:170] fc8_flickr needs backward computation.
…
I0430 19:47:50.590165 19844 net.cpp:356] data -> label
I0430 19:47:50.590183 19844 net.cpp:96] Setting up data
I0430 19:47:50.590194 19844 image_data_layer.cpp:31] Opening file /home/ubuntu/Kaggle/trainnet2exp1_prep.csv
I0430 19:47:50.676231 19844 image_data_layer.cpp:43] Shuffling data
I0430 19:47:50.700299 19844 image_data_layer.cpp:48] A total of 188364 images.
"I0430 19:47:50.704614 19844 image_data_layer.cpp:78] output data size: 300,3,227,227"
I0430 19:47:50.704651 19844 base_data_layer.cpp:36] Loading mean file fromdata/ilsvrc12/imagenet_mean.binaryproto
I0430 19:47:50.748183 19844 net.cpp:103] Top shape: 300 3 227 227 (46376100)
I0430 19:47:50.748227 19844 net.cpp:103] Top shape: 300 1 1 1 (300)
I0430 19:47:50.748249 19844 net.cpp:67] Creating Layer conv1
I0430 19:47:50.748256 19844 net.cpp:394] conv1 <- data
I0430 19:47:50.748276 19844 net.cpp:356] conv1 -> conv1
I0430 19:47:50.748299 19844 net.cpp:96] Setting up conv1
I0430 19:47:50.772486 19844 net.cpp:103] Top shape: 300 96 55 55 (87120000)
I0430 19:47:50.772549 19844 net.cpp:67] Creating Layer relu1
I0430 19:47:50.772559 19844 net.cpp:394] relu1 <- conv1
I0430 19:47:50.772568 19844 net.cpp:345] relu1 -> conv1 (in-place)
I0430 19:47:50.772579 19844 net.cpp:96] Setting up relu1
I0430 19:47:50.772593 19844 net.cpp:103] Top shape: 300 96 55 55 (87120000)
I0430 19:47:50.772603 19844 net.cpp:67] Creating Layer pool1
I0430 19:47:50.772609 19844 net.cpp:394] pool1 <- conv1
I0430 19:47:50.772616 19844 net.cpp:356] pool1 -> pool1
I0430 19:47:50.772625 19844 net.cpp:96] Setting up pool1
I0430 19:47:50.772647 19844 net.cpp:103] Top shape: 300 96 27 27 (20995200)
I0430 19:47:50.772658 19844 net.cpp:67] Creating Layer norm1
I0430 19:47:50.772665 19844 net.cpp:394] norm1 <- pool1
I0430 19:47:50.772671 19844 net.cpp:356] norm1 -> norm1
I0430 19:47:50.772680 19844 net.cpp:96] Setting up norm1
I0430 19:47:50.772691 19844 net.cpp:103] Top shape: 300 96 27 27 (20995200)
I0430 19:47:50.772701 19844 net.cpp:67] Creating Layer conv2
I0430 19:47:50.772706 19844 net.cpp:394] conv2 <- norm1
I0430 19:47:50.772716 19844 net.cpp:356] conv2 -> conv2
I0430 19:47:50.772739 19844 net.cpp:96] Setting up conv2
I0430 19:47:50.783143 19844 net.cpp:103] Top shape: 300 256 27 27 (55987200)
I0430 19:47:50.783167 19844 net.cpp:67] Creating Layer relu2
I0430 19:47:50.783175 19844 net.cpp:394] relu2 <- conv2
I0430 19:47:50.783182 19844 net.cpp:345] relu2 -> conv2 (in-place)
I0430 19:47:50.783190 19844 net.cpp:96] Setting up relu2
I0430 19:47:50.783198 19844 net.cpp:103] Top shape: 300 256 27 27 (55987200)
I0430 19:47:50.783220 19844 net.cpp:67] Creating Layer pool2
I0430 19:47:50.783226 19844 net.cpp:394] pool2 <- conv2
I0430 19:47:50.783234 19844 net.cpp:356] pool2 -> pool2
I0430 19:47:50.783242 19844 net.cpp:96] Setting up pool2
I0430 19:47:50.783252 19844 net.cpp:103] Top shape: 300 256 13 13 (12979200)
I0430 19:47:50.783264 19844 net.cpp:67] Creating Layer norm2
I0430 19:47:50.783270 19844 net.cpp:394] norm2 <- pool2
I0430 19:47:50.783277 19844 net.cpp:356] norm2 -> norm2
I0430 19:47:50.783284 19844 net.cpp:96] Setting up norm2
I0430 19:47:50.783290 19844 net.cpp:103] Top shape: 300 256 13 13 (12979200)
I0430 19:47:50.783318 19844 net.cpp:67] Creating Layer conv3
I0430 19:47:50.783329 19844 net.cpp:394] conv3 <- norm2
I0430 19:47:50.783336 19844 net.cpp:356] conv3 -> conv3
I0430 19:47:50.783345 19844 net.cpp:96] Setting up conv3
I0430 19:47:50.812592 19844 net.cpp:103] Top shape: 300 384 13 13 (19468800)
I0430 19:47:50.812625 19844 net.cpp:67] Creating Layer relu3
I0430 19:47:50.812633 19844 net.cpp:394] relu3 <- conv3
I0430 19:47:50.812641 19844 net.cpp:345] relu3 -> conv3 (in-place)
I0430 19:47:50.812650 19844 net.cpp:96] Setting up relu3
I0430 19:47:50.812659 19844 net.cpp:103] Top shape: 300 384 13 13 (19468800)
I0430 19:47:50.812670 19844 net.cpp:67] Creating Layer conv4
I0430 19:47:50.812676 19844 net.cpp:394] conv4 <- conv3
I0430 19:47:50.812685 19844 net.cpp:356] conv4 -> conv4
I0430 19:47:50.812692 19844 net.cpp:96] Setting up conv4
I0430 19:47:50.835191 19844 net.cpp:103] Top shape: 300 384 13 13 (19468800)
I0430 19:47:50.835217 19844 net.cpp:67] Creating Layer relu4
I0430 19:47:50.835224 19844 net.cpp:394] relu4 <- conv4
I0430 19:47:50.835232 19844 net.cpp:345] relu4 -> conv4 (in-place)
I0430 19:47:50.835243 19844 net.cpp:96] Setting up relu4
I0430 19:47:50.835271 19844 net.cpp:103] Top shape: 300 384 13 13 (19468800)
I0430 19:47:50.835284 19844 net.cpp:67] Creating Layer conv5
I0430 19:47:50.835290 19844 net.cpp:394] conv5 <- conv4
I0430 19:47:50.835299 19844 net.cpp:356] conv5 -> conv5
I0430 19:47:50.835306 19844 net.cpp:96] Setting up conv5
I0430 19:47:50.850234 19844 net.cpp:103] Top shape: 300 256 13 13 (12979200)
I0430 19:47:50.850261 19844 net.cpp:67] Creating Layer relu5
I0430 19:47:50.850268 19844 net.cpp:394] relu5 <- conv5
I0430 19:47:50.850275 19844 net.cpp:345] relu5 -> conv5 (in-place)
I0430 19:47:50.850283 19844 net.cpp:96] Setting up relu5
I0430 19:47:50.850292 19844 net.cpp:103] Top shape: 300 256 13 13 (12979200)
I0430 19:47:50.850301 19844 net.cpp:67] Creating Layer pool5
I0430 19:47:50.850306 19844 net.cpp:394] pool5 <- conv5
I0430 19:47:50.850316 19844 net.cpp:356] pool5 -> pool5
I0430 19:47:50.850323 19844 net.cpp:96] Setting up pool5
I0430 19:47:50.850334 19844 net.cpp:103] Top shape: 300 256 6 6 (2764800)
I0430 19:47:50.850348 19844 net.cpp:67] Creating Layer fc6
I0430 19:47:50.850354 19844 net.cpp:394] fc6 <- pool5
I0430 19:47:50.850364 19844 net.cpp:356] fc6 -> fc6
I0430 19:47:50.850378 19844 net.cpp:96] Setting up fc6
I0430 19:47:52.074156 19844 net.cpp:103] Top shape: 300 4096 1 1 (1228800)
I0430 19:47:52.074210 19844 net.cpp:67] Creating Layer relu6
I0430 19:47:52.074218 19844 net.cpp:394] relu6 <- fc6
I0430 19:47:52.074232 19844 net.cpp:345] relu6 -> fc6 (in-place)
I0430 19:47:52.074244 19844 net.cpp:96] Setting up relu6
I0430 19:47:52.074265 19844 net.cpp:103] Top shape: 300 4096 1 1 (1228800)
I0430 19:47:52.074273 19844 net.cpp:67] Creating Layer drop6
I0430 19:47:52.074278 19844 net.cpp:394] drop6 <- fc6
I0430 19:47:52.074285 19844 net.cpp:345] drop6 -> fc6 (in-place)
I0430 19:47:52.074293 19844 net.cpp:96] Setting up drop6
I0430 19:47:52.074323 19844 net.cpp:103] Top shape: 300 4096 1 1 (1228800)
I0430 19:47:52.074337 19844 net.cpp:67] Creating Layer fc7
I0430 19:47:52.074342 19844 net.cpp:394] fc7 <- fc6
I0430 19:47:52.074350 19844 net.cpp:356] fc7 -> fc7
I0430 19:47:52.074359 19844 net.cpp:96] Setting up fc7
I0430 19:47:52.628149 19844 net.cpp:103] Top shape: 300 4096 1 1 (1228800)
I0430 19:47:52.628206 19844 net.cpp:67] Creating Layer relu7
I0430 19:47:52.628234 19844 net.cpp:394] relu7 <- fc7
I0430 19:47:52.628245 19844 net.cpp:345] relu7 -> fc7 (in-place)
I0430 19:47:52.628255 19844 net.cpp:96] Setting up relu7
I0430 19:47:52.628276 19844 net.cpp:103] Top shape: 300 4096 1 1 (1228800)
I0430 19:47:52.628288 19844 net.cpp:67] Creating Layer drop7
I0430 19:47:52.628294 19844 net.cpp:394] drop7 <- fc7
I0430 19:47:52.628300 19844 net.cpp:345] drop7 -> fc7 (in-place)
I0430 19:47:52.628309 19844 net.cpp:96] Setting up drop7
I0430 19:47:52.628314 19844 net.cpp:103] Top shape: 300 4096 1 1 (1228800)
I0430 19:47:52.628325 19844 net.cpp:67] Creating Layer fc8_flickr
I0430 19:47:52.628330 19844 net.cpp:394] fc8_flickr <- fc7
I0430 19:47:52.628339 19844 net.cpp:356] fc8_flickr -> fc8_flickr
I0430 19:47:52.628347 19844 net.cpp:96] Setting up fc8_flickr
I0430 19:47:52.628495 19844 net.cpp:103] Top shape: 300 1 1 1 (300)
I0430 19:47:52.628506 19844 net.cpp:67] Creating Layer loss
I0430 19:47:52.628512 19844 net.cpp:394] loss <- fc8_flickr
I0430 19:47:52.628518 19844 net.cpp:394] loss <- label
I0430 19:47:52.628530 19844 net.cpp:356] loss -> (automatic)
I0430 19:47:52.628535 19844 net.cpp:96] Setting up loss
I0430 19:47:52.628543 19844 net.cpp:103] Top shape: 1 1 1 1 (1)
I0430 19:47:52.628548 19844 net.cpp:109]     with loss weight 1
I0430 19:47:52.628590 19844 net.cpp:170] loss needs backward computation.
I0430 19:47:52.628597 19844 net.cpp:170] fc8_flickr needs backward computation.
I0430 19:47:52.628602 19844 net.cpp:170] drop7 needs backward computation.
I0430 19:47:52.628607 19844 net.cpp:170] relu7 needs backward computation.
I0430 19:47:52.628612 19844 net.cpp:170] fc7 needs backward computation.
…
I0430 19:47:52.629704 19844 net.cpp:67] Creating Layer data
I0430 19:47:52.629715 19844 net.cpp:356] data -> data
I0430 19:47:52.629726 19844 net.cpp:356] data -> label
I0430 19:47:52.629735 19844 net.cpp:96] Setting up data
I0430 19:47:52.629741 19844 image_data_layer.cpp:31] Opening file /home/ubuntu/Kaggle/valnet2exp1.csv
I0430 19:47:52.631431 19844 image_data_layer.cpp:48] A total of 4044 images.
"I0430 19:47:52.634241 19844 image_data_layer.cpp:78] output data size: 300,3,227,227"
I0430 19:47:52.634261 19844 base_data_layer.cpp:36] Loading mean file fromdata/ilsvrc12/imagenet_mean.binaryproto
I0430 19:47:52.718575 19844 net.cpp:103] Top shape: 300 3 227 227 (46376100)
I0430 19:47:52.718616 19844 net.cpp:103] Top shape: 300 1 1 1 (300)
I0430 19:47:52.718632 19844 net.cpp:67] Creating Layer label_data_1_split
I0430 19:47:52.718641 19844 net.cpp:394] label_data_1_split <- label
I0430 19:47:52.718652 19844 net.cpp:356] label_data_1_split -> label_data_1_split_0
I0430 19:47:52.718670 19844 net.cpp:356] label_data_1_split -> label_data_1_split_1
I0430 19:47:52.718678 19844 net.cpp:96] Setting up label_data_1_split
I0430 19:47:52.718705 19844 net.cpp:103] Top shape: 300 1 1 1 (300)
I0430 19:47:52.718713 19844 net.cpp:103] Top shape: 300 1 1 1 (300)
I0430 19:47:52.718724 19844 net.cpp:67] Creating Layer conv1
I0430 19:47:52.718730 19844 net.cpp:394] conv1 <- data
I0430 19:47:52.718739 19844 net.cpp:356] conv1 -> conv1
I0430 19:47:52.718747 19844 net.cpp:96] Setting up conv1
I0430 19:47:52.719998 19844 net.cpp:103] Top shape: 300 96 55 55 (87120000)
I0430 19:47:52.720023 19844 net.cpp:67] Creating Layer relu1
I0430 19:47:52.720029 19844 net.cpp:394] relu1 <- conv1
I0430 19:47:52.720037 19844 net.cpp:345] relu1 -> conv1 (in-place)
I0430 19:47:52.720046 19844 net.cpp:96] Setting up relu1
I0430 19:47:52.720054 19844 net.cpp:103] Top shape: 300 96 55 55 (87120000)
I0430 19:47:52.720064 19844 net.cpp:67] Creating Layer pool1
I0430 19:47:52.720069 19844 net.cpp:394] pool1 <- conv1
I0430 19:47:52.720077 19844 net.cpp:356] pool1 -> pool1
I0430 19:47:52.720085 19844 net.cpp:96] Setting up pool1
I0430 19:47:52.720095 19844 net.cpp:103] Top shape: 300 96 27 27 (20995200)
I0430 19:47:52.720104 19844 net.cpp:67] Creating Layer norm1
I0430 19:47:52.720110 19844 net.cpp:394] norm1 <- pool1
I0430 19:47:52.720118 19844 net.cpp:356] norm1 -> norm1
I0430 19:47:52.720124 19844 net.cpp:96] Setting up norm1
I0430 19:47:52.720131 19844 net.cpp:103] Top shape: 300 96 27 27 (20995200)
I0430 19:47:52.720140 19844 net.cpp:67] Creating Layer conv2
I0430 19:47:52.720146 19844 net.cpp:394] conv2 <- norm1
I0430 19:47:52.720155 19844 net.cpp:356] conv2 -> conv2
I0430 19:47:52.720162 19844 net.cpp:96] Setting up conv2
I0430 19:47:52.730360 19844 net.cpp:103] Top shape: 300 256 27 27 (55987200)
I0430 19:47:52.730382 19844 net.cpp:67] Creating Layer relu2
I0430 19:47:52.730389 19844 net.cpp:394] relu2 <- conv2
I0430 19:47:52.730397 19844 net.cpp:345] relu2 -> conv2 (in-place)
I0430 19:47:52.730406 19844 net.cpp:96] Setting up relu2
I0430 19:47:52.730413 19844 net.cpp:103] Top shape: 300 256 27 27 (55987200)
I0430 19:47:52.730424 19844 net.cpp:67] Creating Layer pool2
I0430 19:47:52.730430 19844 net.cpp:394] pool2 <- conv2
I0430 19:47:52.730438 19844 net.cpp:356] pool2 -> pool2
I0430 19:47:52.730447 19844 net.cpp:96] Setting up pool2
I0430 19:47:52.730470 19844 net.cpp:103] Top shape: 300 256 13 13 (12979200)
I0430 19:47:52.730480 19844 net.cpp:67] Creating Layer norm2
I0430 19:47:52.730485 19844 net.cpp:394] norm2 <- pool2
I0430 19:47:52.730492 19844 net.cpp:356] norm2 -> norm2
I0430 19:47:52.730500 19844 net.cpp:96] Setting up norm2
I0430 19:47:52.730506 19844 net.cpp:103] Top shape: 300 256 13 13 (12979200)
I0430 19:47:52.730520 19844 net.cpp:67] Creating Layer conv3
I0430 19:47:52.730538 19844 net.cpp:394] conv3 <- norm2
I0430 19:47:52.730548 19844 net.cpp:356] conv3 -> conv3
I0430 19:47:52.730556 19844 net.cpp:96] Setting up conv3
I0430 19:47:52.760068 19844 net.cpp:103] Top shape: 300 384 13 13 (19468800)
I0430 19:47:52.760097 19844 net.cpp:67] Creating Layer relu3
I0430 19:47:52.760104 19844 net.cpp:394] relu3 <- conv3
I0430 19:47:52.760113 19844 net.cpp:345] relu3 -> conv3 (in-place)
I0430 19:47:52.760120 19844 net.cpp:96] Setting up relu3
I0430 19:47:52.760129 19844 net.cpp:103] Top shape: 300 384 13 13 (19468800)
I0430 19:47:52.760141 19844 net.cpp:67] Creating Layer conv4
I0430 19:47:52.760148 19844 net.cpp:394] conv4 <- conv3
I0430 19:47:52.760156 19844 net.cpp:356] conv4 -> conv4
I0430 19:47:52.760167 19844 net.cpp:96] Setting up conv4
I0430 19:47:52.782380 19844 net.cpp:103] Top shape: 300 384 13 13 (19468800)
I0430 19:47:52.782407 19844 net.cpp:67] Creating Layer relu4
I0430 19:47:52.782414 19844 net.cpp:394] relu4 <- conv4
I0430 19:47:52.782423 19844 net.cpp:345] relu4 -> conv4 (in-place)
I0430 19:47:52.782429 19844 net.cpp:96] Setting up relu4
I0430 19:47:52.782438 19844 net.cpp:103] Top shape: 300 384 13 13 (19468800)
I0430 19:47:52.782449 19844 net.cpp:67] Creating Layer conv5
I0430 19:47:52.782455 19844 net.cpp:394] conv5 <- conv4
I0430 19:47:52.782465 19844 net.cpp:356] conv5 -> conv5
I0430 19:47:52.782474 19844 net.cpp:96] Setting up conv5
I0430 19:47:52.797504 19844 net.cpp:103] Top shape: 300 256 13 13 (12979200)
I0430 19:47:52.797531 19844 net.cpp:67] Creating Layer relu5
I0430 19:47:52.797539 19844 net.cpp:394] relu5 <- conv5
I0430 19:47:52.797549 19844 net.cpp:345] relu5 -> conv5 (in-place)
I0430 19:47:52.797559 19844 net.cpp:96] Setting up relu5
I0430 19:47:52.797566 19844 net.cpp:103] Top shape: 300 256 13 13 (12979200)
I0430 19:47:52.797579 19844 net.cpp:67] Creating Layer pool5
I0430 19:47:52.797583 19844 net.cpp:394] pool5 <- conv5
I0430 19:47:52.797591 19844 net.cpp:356] pool5 -> pool5
I0430 19:47:52.797598 19844 net.cpp:96] Setting up pool5
I0430 19:47:52.797608 19844 net.cpp:103] Top shape: 300 256 6 6 (2764800)
I0430 19:47:52.797621 19844 net.cpp:67] Creating Layer fc6
I0430 19:47:52.797626 19844 net.cpp:394] fc6 <- pool5
I0430 19:47:52.797636 19844 net.cpp:356] fc6 -> fc6
I0430 19:47:52.797644 19844 net.cpp:96] Setting up fc6
I0430 19:47:54.173476 19844 net.cpp:103] Top shape: 300 4096 1 1 (1228800)
I0430 19:47:54.173540 19844 net.cpp:67] Creating Layer relu6
I0430 19:47:54.173549 19844 net.cpp:394] relu6 <- fc6
I0430 19:47:54.173560 19844 net.cpp:345] relu6 -> fc6 (in-place)
I0430 19:47:54.173573 19844 net.cpp:96] Setting up relu6
I0430 19:47:54.173594 19844 net.cpp:103] Top shape: 300 4096 1 1 (1228800)
I0430 19:47:54.173604 19844 net.cpp:67] Creating Layer drop6
I0430 19:47:54.173609 19844 net.cpp:394] drop6 <- fc6
I0430 19:47:54.173615 19844 net.cpp:345] drop6 -> fc6 (in-place)
I0430 19:47:54.173624 19844 net.cpp:96] Setting up drop6
I0430 19:47:54.173629 19844 net.cpp:103] Top shape: 300 4096 1 1 (1228800)
I0430 19:47:54.173638 19844 net.cpp:67] Creating Layer fc7
I0430 19:47:54.173643 19844 net.cpp:394] fc7 <- fc6
I0430 19:47:54.173651 19844 net.cpp:356] fc7 -> fc7
I0430 19:47:54.173660 19844 net.cpp:96] Setting up fc7
I0430 19:47:54.767084 19844 net.cpp:103] Top shape: 300 4096 1 1 (1228800)
I0430 19:47:54.767146 19844 net.cpp:67] Creating Layer relu7
I0430 19:47:54.767158 19844 net.cpp:394] relu7 <- fc7
I0430 19:47:54.767168 19844 net.cpp:345] relu7 -> fc7 (in-place)
I0430 19:47:54.767179 19844 net.cpp:96] Setting up relu7
I0430 19:47:54.767200 19844 net.cpp:103] Top shape: 300 4096 1 1 (1228800)
I0430 19:47:54.767222 19844 net.cpp:67] Creating Layer drop7
I0430 19:47:54.767228 19844 net.cpp:394] drop7 <- fc7
I0430 19:47:54.767235 19844 net.cpp:345] drop7 -> fc7 (in-place)
I0430 19:47:54.767242 19844 net.cpp:96] Setting up drop7
I0430 19:47:54.767249 19844 net.cpp:103] Top shape: 300 4096 1 1 (1228800)
I0430 19:47:54.767259 19844 net.cpp:67] Creating Layer fc8_flickr
I0430 19:47:54.767266 19844 net.cpp:394] fc8_flickr <- fc7
I0430 19:47:54.767287 19844 net.cpp:356] fc8_flickr -> fc8_flickr
I0430 19:47:54.767310 19844 net.cpp:96] Setting up fc8_flickr
I0430 19:47:54.767467 19844 net.cpp:103] Top shape: 300 1 1 1 (300)
I0430 19:47:54.767482 19844 net.cpp:67] Creating Layer fc8_flickr_fc8_flickr_0_split
I0430 19:47:54.767488 19844 net.cpp:394] fc8_flickr_fc8_flickr_0_split <- fc8_flickr
I0430 19:47:54.767495 19844 net.cpp:356] fc8_flickr_fc8_flickr_0_split -> fc8_flickr_fc8_flickr_0_split_0
I0430 19:47:54.767503 19844 net.cpp:356] fc8_flickr_fc8_flickr_0_split -> fc8_flickr_fc8_flickr_0_split_1
I0430 19:47:54.767511 19844 net.cpp:96] Setting up fc8_flickr_fc8_flickr_0_split
I0430 19:47:54.767518 19844 net.cpp:103] Top shape: 300 1 1 1 (300)
I0430 19:47:54.767524 19844 net.cpp:103] Top shape: 300 1 1 1 (300)
I0430 19:47:54.767531 19844 net.cpp:67] Creating Layer loss
I0430 19:47:54.767537 19844 net.cpp:394] loss <- fc8_flickr_fc8_flickr_0_split_0
I0430 19:47:54.767544 19844 net.cpp:394] loss <- label_data_1_split_0
I0430 19:47:54.767551 19844 net.cpp:356] loss -> (automatic)
I0430 19:47:54.767557 19844 net.cpp:96] Setting up loss
I0430 19:47:54.767565 19844 net.cpp:103] Top shape: 1 1 1 1 (1)
I0430 19:47:54.767570 19844 net.cpp:109]     with loss weight 1
I0430 19:47:54.767590 19844 net.cpp:67] Creating Layer reg-loss
I0430 19:47:54.767596 19844 net.cpp:394] reg-loss <- fc8_flickr_fc8_flickr_0_split_1
I0430 19:47:54.767602 19844 net.cpp:394] reg-loss <- label_data_1_split_1
I0430 19:47:54.767611 19844 net.cpp:356] reg-loss -> reg-loss
I0430 19:47:54.767619 19844 net.cpp:96] Setting up reg-loss
I0430 19:47:54.767626 19844 net.cpp:103] Top shape: 1 1 1 1 (1)
I0430 19:47:54.767631 19844 net.cpp:109]     with loss weight 1
I0430 19:47:54.767637 19844 net.cpp:170] reg-loss needs backward computation.
I0430 19:47:54.767643 19844 net.cpp:170] loss needs backward computation.
I0430 19:47:54.767649 19844 net.cpp:170] fc8_flickr_fc8_flickr_0_split needs backward computation.
I0430 19:47:54.767654 19844 net.cpp:170] fc8_flickr needs backward computation.
…
I0430 19:52:20.538122 20027 net.cpp:356] data -> label
I0430 19:52:20.538139 20027 net.cpp:96] Setting up data
I0430 19:52:20.538151 20027 image_data_layer.cpp:31] Opening file /home/ubuntu/Kaggle/trainnet2exp1_prep.csv
I0430 19:52:20.623852 20027 image_data_layer.cpp:43] Shuffling data
I0430 19:52:20.648253 20027 image_data_layer.cpp:48] A total of 188364 images.
"I0430 19:52:20.652591 20027 image_data_layer.cpp:78] output data size: 250,3,227,227"
I0430 19:52:20.652631 20027 base_data_layer.cpp:36] Loading mean file fromdata/ilsvrc12/imagenet_mean.binaryproto
I0430 19:52:20.689301 20027 net.cpp:103] Top shape: 250 3 227 227 (38646750)
I0430 19:52:20.689345 20027 net.cpp:103] Top shape: 250 1 1 1 (250)
I0430 19:52:20.689369 20027 net.cpp:67] Creating Layer conv1
I0430 19:52:20.689378 20027 net.cpp:394] conv1 <- data
I0430 19:52:20.689398 20027 net.cpp:356] conv1 -> conv1
I0430 19:52:20.689419 20027 net.cpp:96] Setting up conv1
I0430 19:52:20.713135 20027 net.cpp:103] Top shape: 250 96 55 55 (72600000)
I0430 19:52:20.713197 20027 net.cpp:67] Creating Layer relu1
I0430 19:52:20.713207 20027 net.cpp:394] relu1 <- conv1
I0430 19:52:20.713217 20027 net.cpp:345] relu1 -> conv1 (in-place)
I0430 19:52:20.713227 20027 net.cpp:96] Setting up relu1
I0430 19:52:20.713243 20027 net.cpp:103] Top shape: 250 96 55 55 (72600000)
I0430 19:52:20.713251 20027 net.cpp:67] Creating Layer pool1
I0430 19:52:20.713258 20027 net.cpp:394] pool1 <- conv1
I0430 19:52:20.713264 20027 net.cpp:356] pool1 -> pool1
I0430 19:52:20.713274 20027 net.cpp:96] Setting up pool1
I0430 19:52:20.713295 20027 net.cpp:103] Top shape: 250 96 27 27 (17496000)
I0430 19:52:20.713306 20027 net.cpp:67] Creating Layer norm1
I0430 19:52:20.713312 20027 net.cpp:394] norm1 <- pool1
I0430 19:52:20.713320 20027 net.cpp:356] norm1 -> norm1
I0430 19:52:20.713328 20027 net.cpp:96] Setting up norm1
I0430 19:52:20.713338 20027 net.cpp:103] Top shape: 250 96 27 27 (17496000)
I0430 19:52:20.713351 20027 net.cpp:67] Creating Layer conv2
I0430 19:52:20.713357 20027 net.cpp:394] conv2 <- norm1
I0430 19:52:20.713367 20027 net.cpp:356] conv2 -> conv2
I0430 19:52:20.713376 20027 net.cpp:96] Setting up conv2
I0430 19:52:20.723769 20027 net.cpp:103] Top shape: 250 256 27 27 (46656000)
I0430 19:52:20.723793 20027 net.cpp:67] Creating Layer relu2
I0430 19:52:20.723800 20027 net.cpp:394] relu2 <- conv2
I0430 19:52:20.723808 20027 net.cpp:345] relu2 -> conv2 (in-place)
I0430 19:52:20.723815 20027 net.cpp:96] Setting up relu2
I0430 19:52:20.723824 20027 net.cpp:103] Top shape: 250 256 27 27 (46656000)
I0430 19:52:20.723851 20027 net.cpp:67] Creating Layer pool2
I0430 19:52:20.723857 20027 net.cpp:394] pool2 <- conv2
I0430 19:52:20.723866 20027 net.cpp:356] pool2 -> pool2
I0430 19:52:20.723875 20027 net.cpp:96] Setting up pool2
I0430 19:52:20.723883 20027 net.cpp:103] Top shape: 250 256 13 13 (10816000)
I0430 19:52:20.723892 20027 net.cpp:67] Creating Layer norm2
I0430 19:52:20.723897 20027 net.cpp:394] norm2 <- pool2
I0430 19:52:20.723906 20027 net.cpp:356] norm2 -> norm2
I0430 19:52:20.723914 20027 net.cpp:96] Setting up norm2
I0430 19:52:20.723920 20027 net.cpp:103] Top shape: 250 256 13 13 (10816000)
I0430 19:52:20.723930 20027 net.cpp:67] Creating Layer conv3
I0430 19:52:20.723937 20027 net.cpp:394] conv3 <- norm2
I0430 19:52:20.723943 20027 net.cpp:356] conv3 -> conv3
I0430 19:52:20.723953 20027 net.cpp:96] Setting up conv3
I0430 19:52:20.753065 20027 net.cpp:103] Top shape: 250 384 13 13 (16224000)
I0430 19:52:20.753095 20027 net.cpp:67] Creating Layer relu3
I0430 19:52:20.753101 20027 net.cpp:394] relu3 <- conv3
I0430 19:52:20.753111 20027 net.cpp:345] relu3 -> conv3 (in-place)
I0430 19:52:20.753120 20027 net.cpp:96] Setting up relu3
I0430 19:52:20.753129 20027 net.cpp:103] Top shape: 250 384 13 13 (16224000)
I0430 19:52:20.753137 20027 net.cpp:67] Creating Layer conv4
I0430 19:52:20.753145 20027 net.cpp:394] conv4 <- conv3
I0430 19:52:20.753152 20027 net.cpp:356] conv4 -> conv4
I0430 19:52:20.753160 20027 net.cpp:96] Setting up conv4
I0430 19:52:20.775467 20027 net.cpp:103] Top shape: 250 384 13 13 (16224000)
I0430 19:52:20.775493 20027 net.cpp:67] Creating Layer relu4
I0430 19:52:20.775501 20027 net.cpp:394] relu4 <- conv4
I0430 19:52:20.775508 20027 net.cpp:345] relu4 -> conv4 (in-place)
I0430 19:52:20.775528 20027 net.cpp:96] Setting up relu4
I0430 19:52:20.775537 20027 net.cpp:103] Top shape: 250 384 13 13 (16224000)
I0430 19:52:20.775549 20027 net.cpp:67] Creating Layer conv5
I0430 19:52:20.775555 20027 net.cpp:394] conv5 <- conv4
I0430 19:52:20.775563 20027 net.cpp:356] conv5 -> conv5
I0430 19:52:20.775570 20027 net.cpp:96] Setting up conv5
I0430 19:52:20.790423 20027 net.cpp:103] Top shape: 250 256 13 13 (10816000)
I0430 19:52:20.790451 20027 net.cpp:67] Creating Layer relu5
I0430 19:52:20.790457 20027 net.cpp:394] relu5 <- conv5
I0430 19:52:20.790464 20027 net.cpp:345] relu5 -> conv5 (in-place)
I0430 19:52:20.790472 20027 net.cpp:96] Setting up relu5
I0430 19:52:20.790482 20027 net.cpp:103] Top shape: 250 256 13 13 (10816000)
I0430 19:52:20.790490 20027 net.cpp:67] Creating Layer pool5
I0430 19:52:20.790495 20027 net.cpp:394] pool5 <- conv5
I0430 19:52:20.790504 20027 net.cpp:356] pool5 -> pool5
I0430 19:52:20.790513 20027 net.cpp:96] Setting up pool5
I0430 19:52:20.790524 20027 net.cpp:103] Top shape: 250 256 6 6 (2304000)
I0430 19:52:20.790536 20027 net.cpp:67] Creating Layer fc6
I0430 19:52:20.790542 20027 net.cpp:394] fc6 <- pool5
I0430 19:52:20.790549 20027 net.cpp:356] fc6 -> fc6
I0430 19:52:20.790559 20027 net.cpp:96] Setting up fc6
I0430 19:52:22.011147 20027 net.cpp:103] Top shape: 250 4096 1 1 (1024000)
I0430 19:52:22.011199 20027 net.cpp:67] Creating Layer relu6
I0430 19:52:22.011209 20027 net.cpp:394] relu6 <- fc6
I0430 19:52:22.011219 20027 net.cpp:345] relu6 -> fc6 (in-place)
I0430 19:52:22.011229 20027 net.cpp:96] Setting up relu6
I0430 19:52:22.011250 20027 net.cpp:103] Top shape: 250 4096 1 1 (1024000)
I0430 19:52:22.011262 20027 net.cpp:67] Creating Layer drop6
I0430 19:52:22.011268 20027 net.cpp:394] drop6 <- fc6
I0430 19:52:22.011276 20027 net.cpp:345] drop6 -> fc6 (in-place)
I0430 19:52:22.011282 20027 net.cpp:96] Setting up drop6
I0430 19:52:22.011296 20027 net.cpp:103] Top shape: 250 4096 1 1 (1024000)
I0430 19:52:22.011317 20027 net.cpp:67] Creating Layer fc7
I0430 19:52:22.011323 20027 net.cpp:394] fc7 <- fc6
I0430 19:52:22.011334 20027 net.cpp:356] fc7 -> fc7
I0430 19:52:22.011344 20027 net.cpp:96] Setting up fc7
I0430 19:52:22.554420 20027 net.cpp:103] Top shape: 250 4096 1 1 (1024000)
I0430 19:52:22.554478 20027 net.cpp:67] Creating Layer relu7
I0430 19:52:22.554507 20027 net.cpp:394] relu7 <- fc7
I0430 19:52:22.554517 20027 net.cpp:345] relu7 -> fc7 (in-place)
I0430 19:52:22.554527 20027 net.cpp:96] Setting up relu7
I0430 19:52:22.554548 20027 net.cpp:103] Top shape: 250 4096 1 1 (1024000)
I0430 19:52:22.554555 20027 net.cpp:67] Creating Layer drop7
I0430 19:52:22.554565 20027 net.cpp:394] drop7 <- fc7
I0430 19:52:22.554575 20027 net.cpp:345] drop7 -> fc7 (in-place)
I0430 19:52:22.554584 20027 net.cpp:96] Setting up drop7
I0430 19:52:22.554589 20027 net.cpp:103] Top shape: 250 4096 1 1 (1024000)
I0430 19:52:22.554599 20027 net.cpp:67] Creating Layer fc8_flickr
I0430 19:52:22.554604 20027 net.cpp:394] fc8_flickr <- fc7
I0430 19:52:22.554611 20027 net.cpp:356] fc8_flickr -> fc8_flickr
I0430 19:52:22.554620 20027 net.cpp:96] Setting up fc8_flickr
I0430 19:52:22.554771 20027 net.cpp:103] Top shape: 250 1 1 1 (250)
I0430 19:52:22.554785 20027 net.cpp:67] Creating Layer loss
I0430 19:52:22.554790 20027 net.cpp:394] loss <- fc8_flickr
I0430 19:52:22.554796 20027 net.cpp:394] loss <- label
I0430 19:52:22.554805 20027 net.cpp:356] loss -> (automatic)
I0430 19:52:22.554811 20027 net.cpp:96] Setting up loss
I0430 19:52:22.554818 20027 net.cpp:103] Top shape: 1 1 1 1 (1)
I0430 19:52:22.554823 20027 net.cpp:109]     with loss weight 1
I0430 19:52:22.554867 20027 net.cpp:170] loss needs backward computation.
I0430 19:52:22.554873 20027 net.cpp:170] fc8_flickr needs backward computation.
I0430 19:52:22.554879 20027 net.cpp:170] drop7 needs backward computation.
I0430 19:52:22.554884 20027 net.cpp:170] relu7 needs backward computation.
I0430 19:52:22.554889 20027 net.cpp:170] fc7 needs backward computation.
…
I0430 19:52:22.555997 20027 net.cpp:67] Creating Layer data
I0430 19:52:22.556009 20027 net.cpp:356] data -> data
I0430 19:52:22.556020 20027 net.cpp:356] data -> label
I0430 19:52:22.556028 20027 net.cpp:96] Setting up data
I0430 19:52:22.556035 20027 image_data_layer.cpp:31] Opening file /home/ubuntu/Kaggle/valnet2exp1.csv
I0430 19:52:22.557665 20027 image_data_layer.cpp:48] A total of 4044 images.
"I0430 19:52:22.560400 20027 image_data_layer.cpp:78] output data size: 250,3,227,227"
I0430 19:52:22.560420 20027 base_data_layer.cpp:36] Loading mean file fromdata/ilsvrc12/imagenet_mean.binaryproto
I0430 19:52:22.597623 20027 net.cpp:103] Top shape: 250 3 227 227 (38646750)
I0430 19:52:22.597667 20027 net.cpp:103] Top shape: 250 1 1 1 (250)
I0430 19:52:22.597687 20027 net.cpp:67] Creating Layer label_data_1_split
I0430 19:52:22.597695 20027 net.cpp:394] label_data_1_split <- label
I0430 19:52:22.597710 20027 net.cpp:356] label_data_1_split -> label_data_1_split_0
I0430 19:52:22.597725 20027 net.cpp:356] label_data_1_split -> label_data_1_split_1
I0430 19:52:22.597734 20027 net.cpp:96] Setting up label_data_1_split
I0430 19:52:22.597756 20027 net.cpp:103] Top shape: 250 1 1 1 (250)
I0430 19:52:22.597764 20027 net.cpp:103] Top shape: 250 1 1 1 (250)
I0430 19:52:22.597774 20027 net.cpp:67] Creating Layer conv1
I0430 19:52:22.597780 20027 net.cpp:394] conv1 <- data
I0430 19:52:22.597790 20027 net.cpp:356] conv1 -> conv1
I0430 19:52:22.597812 20027 net.cpp:96] Setting up conv1
I0430 19:52:22.599035 20027 net.cpp:103] Top shape: 250 96 55 55 (72600000)
I0430 19:52:22.599057 20027 net.cpp:67] Creating Layer relu1
I0430 19:52:22.599064 20027 net.cpp:394] relu1 <- conv1
I0430 19:52:22.599071 20027 net.cpp:345] relu1 -> conv1 (in-place)
I0430 19:52:22.599079 20027 net.cpp:96] Setting up relu1
I0430 19:52:22.599087 20027 net.cpp:103] Top shape: 250 96 55 55 (72600000)
I0430 19:52:22.599097 20027 net.cpp:67] Creating Layer pool1
I0430 19:52:22.599103 20027 net.cpp:394] pool1 <- conv1
I0430 19:52:22.599110 20027 net.cpp:356] pool1 -> pool1
I0430 19:52:22.599118 20027 net.cpp:96] Setting up pool1
I0430 19:52:22.599128 20027 net.cpp:103] Top shape: 250 96 27 27 (17496000)
I0430 19:52:22.599138 20027 net.cpp:67] Creating Layer norm1
I0430 19:52:22.599143 20027 net.cpp:394] norm1 <- pool1
I0430 19:52:22.599150 20027 net.cpp:356] norm1 -> norm1
I0430 19:52:22.599158 20027 net.cpp:96] Setting up norm1
I0430 19:52:22.599165 20027 net.cpp:103] Top shape: 250 96 27 27 (17496000)
I0430 19:52:22.599174 20027 net.cpp:67] Creating Layer conv2
I0430 19:52:22.599179 20027 net.cpp:394] conv2 <- norm1
I0430 19:52:22.599187 20027 net.cpp:356] conv2 -> conv2
I0430 19:52:22.599195 20027 net.cpp:96] Setting up conv2
I0430 19:52:22.609381 20027 net.cpp:103] Top shape: 250 256 27 27 (46656000)
I0430 19:52:22.609407 20027 net.cpp:67] Creating Layer relu2
I0430 19:52:22.609415 20027 net.cpp:394] relu2 <- conv2
I0430 19:52:22.609421 20027 net.cpp:345] relu2 -> conv2 (in-place)
I0430 19:52:22.609429 20027 net.cpp:96] Setting up relu2
I0430 19:52:22.609437 20027 net.cpp:103] Top shape: 250 256 27 27 (46656000)
I0430 19:52:22.609447 20027 net.cpp:67] Creating Layer pool2
I0430 19:52:22.609452 20027 net.cpp:394] pool2 <- conv2
I0430 19:52:22.609462 20027 net.cpp:356] pool2 -> pool2
I0430 19:52:22.609470 20027 net.cpp:96] Setting up pool2
I0430 19:52:22.609479 20027 net.cpp:103] Top shape: 250 256 13 13 (10816000)
I0430 19:52:22.609489 20027 net.cpp:67] Creating Layer norm2
I0430 19:52:22.609495 20027 net.cpp:394] norm2 <- pool2
I0430 19:52:22.609503 20027 net.cpp:356] norm2 -> norm2
I0430 19:52:22.609509 20027 net.cpp:96] Setting up norm2
I0430 19:52:22.609516 20027 net.cpp:103] Top shape: 250 256 13 13 (10816000)
I0430 19:52:22.609524 20027 net.cpp:67] Creating Layer conv3
I0430 19:52:22.609542 20027 net.cpp:394] conv3 <- norm2
I0430 19:52:22.609552 20027 net.cpp:356] conv3 -> conv3
I0430 19:52:22.609561 20027 net.cpp:96] Setting up conv3
I0430 19:52:22.638617 20027 net.cpp:103] Top shape: 250 384 13 13 (16224000)
I0430 19:52:22.638659 20027 net.cpp:67] Creating Layer relu3
I0430 19:52:22.638666 20027 net.cpp:394] relu3 <- conv3
I0430 19:52:22.638674 20027 net.cpp:345] relu3 -> conv3 (in-place)
I0430 19:52:22.638684 20027 net.cpp:96] Setting up relu3
I0430 19:52:22.638691 20027 net.cpp:103] Top shape: 250 384 13 13 (16224000)
I0430 19:52:22.638700 20027 net.cpp:67] Creating Layer conv4
I0430 19:52:22.638706 20027 net.cpp:394] conv4 <- conv3
I0430 19:52:22.638715 20027 net.cpp:356] conv4 -> conv4
I0430 19:52:22.638725 20027 net.cpp:96] Setting up conv4
I0430 19:52:22.661053 20027 net.cpp:103] Top shape: 250 384 13 13 (16224000)
I0430 19:52:22.661077 20027 net.cpp:67] Creating Layer relu4
I0430 19:52:22.661085 20027 net.cpp:394] relu4 <- conv4
I0430 19:52:22.661092 20027 net.cpp:345] relu4 -> conv4 (in-place)
I0430 19:52:22.661100 20027 net.cpp:96] Setting up relu4
I0430 19:52:22.661108 20027 net.cpp:103] Top shape: 250 384 13 13 (16224000)
I0430 19:52:22.661120 20027 net.cpp:67] Creating Layer conv5
I0430 19:52:22.661126 20027 net.cpp:394] conv5 <- conv4
I0430 19:52:22.661134 20027 net.cpp:356] conv5 -> conv5
I0430 19:52:22.661142 20027 net.cpp:96] Setting up conv5
I0430 19:52:22.676136 20027 net.cpp:103] Top shape: 250 256 13 13 (10816000)
I0430 19:52:22.676164 20027 net.cpp:67] Creating Layer relu5
I0430 19:52:22.676172 20027 net.cpp:394] relu5 <- conv5
I0430 19:52:22.676179 20027 net.cpp:345] relu5 -> conv5 (in-place)
I0430 19:52:22.676188 20027 net.cpp:96] Setting up relu5
I0430 19:52:22.676209 20027 net.cpp:103] Top shape: 250 256 13 13 (10816000)
I0430 19:52:22.676223 20027 net.cpp:67] Creating Layer pool5
I0430 19:52:22.676229 20027 net.cpp:394] pool5 <- conv5
I0430 19:52:22.676236 20027 net.cpp:356] pool5 -> pool5
I0430 19:52:22.676244 20027 net.cpp:96] Setting up pool5
I0430 19:52:22.676254 20027 net.cpp:103] Top shape: 250 256 6 6 (2304000)
I0430 19:52:22.676264 20027 net.cpp:67] Creating Layer fc6
I0430 19:52:22.676270 20027 net.cpp:394] fc6 <- pool5
I0430 19:52:22.676278 20027 net.cpp:356] fc6 -> fc6
I0430 19:52:22.676286 20027 net.cpp:96] Setting up fc6
I0430 19:52:23.905505 20027 net.cpp:103] Top shape: 250 4096 1 1 (1024000)
I0430 19:52:23.905565 20027 net.cpp:67] Creating Layer relu6
I0430 19:52:23.905573 20027 net.cpp:394] relu6 <- fc6
I0430 19:52:23.905583 20027 net.cpp:345] relu6 -> fc6 (in-place)
I0430 19:52:23.905594 20027 net.cpp:96] Setting up relu6
I0430 19:52:23.905616 20027 net.cpp:103] Top shape: 250 4096 1 1 (1024000)
I0430 19:52:23.905627 20027 net.cpp:67] Creating Layer drop6
I0430 19:52:23.905633 20027 net.cpp:394] drop6 <- fc6
I0430 19:52:23.905640 20027 net.cpp:345] drop6 -> fc6 (in-place)
I0430 19:52:23.905648 20027 net.cpp:96] Setting up drop6
I0430 19:52:23.905654 20027 net.cpp:103] Top shape: 250 4096 1 1 (1024000)
I0430 19:52:23.905663 20027 net.cpp:67] Creating Layer fc7
I0430 19:52:23.905669 20027 net.cpp:394] fc7 <- fc6
I0430 19:52:23.905678 20027 net.cpp:356] fc7 -> fc7
I0430 19:52:23.905686 20027 net.cpp:96] Setting up fc7
I0430 19:52:24.463294 20027 net.cpp:103] Top shape: 250 4096 1 1 (1024000)
I0430 19:52:24.463353 20027 net.cpp:67] Creating Layer relu7
I0430 19:52:24.463362 20027 net.cpp:394] relu7 <- fc7
I0430 19:52:24.463372 20027 net.cpp:345] relu7 -> fc7 (in-place)
I0430 19:52:24.463383 20027 net.cpp:96] Setting up relu7
I0430 19:52:24.463403 20027 net.cpp:103] Top shape: 250 4096 1 1 (1024000)
I0430 19:52:24.463415 20027 net.cpp:67] Creating Layer drop7
I0430 19:52:24.463421 20027 net.cpp:394] drop7 <- fc7
I0430 19:52:24.463428 20027 net.cpp:345] drop7 -> fc7 (in-place)
I0430 19:52:24.463436 20027 net.cpp:96] Setting up drop7
I0430 19:52:24.463443 20027 net.cpp:103] Top shape: 250 4096 1 1 (1024000)
I0430 19:52:24.463451 20027 net.cpp:67] Creating Layer fc8_flickr
I0430 19:52:24.463457 20027 net.cpp:394] fc8_flickr <- fc7
I0430 19:52:24.463490 20027 net.cpp:356] fc8_flickr -> fc8_flickr
I0430 19:52:24.463502 20027 net.cpp:96] Setting up fc8_flickr
I0430 19:52:24.463666 20027 net.cpp:103] Top shape: 250 1 1 1 (250)
I0430 19:52:24.463681 20027 net.cpp:67] Creating Layer fc8_flickr_fc8_flickr_0_split
I0430 19:52:24.463688 20027 net.cpp:394] fc8_flickr_fc8_flickr_0_split <- fc8_flickr
I0430 19:52:24.463696 20027 net.cpp:356] fc8_flickr_fc8_flickr_0_split -> fc8_flickr_fc8_flickr_0_split_0
I0430 19:52:24.463703 20027 net.cpp:356] fc8_flickr_fc8_flickr_0_split -> fc8_flickr_fc8_flickr_0_split_1
I0430 19:52:24.463711 20027 net.cpp:96] Setting up fc8_flickr_fc8_flickr_0_split
I0430 19:52:24.463718 20027 net.cpp:103] Top shape: 250 1 1 1 (250)
I0430 19:52:24.463723 20027 net.cpp:103] Top shape: 250 1 1 1 (250)
I0430 19:52:24.463732 20027 net.cpp:67] Creating Layer loss
I0430 19:52:24.463738 20027 net.cpp:394] loss <- fc8_flickr_fc8_flickr_0_split_0
I0430 19:52:24.463745 20027 net.cpp:394] loss <- label_data_1_split_0
I0430 19:52:24.463752 20027 net.cpp:356] loss -> (automatic)
I0430 19:52:24.463758 20027 net.cpp:96] Setting up loss
I0430 19:52:24.463765 20027 net.cpp:103] Top shape: 1 1 1 1 (1)
I0430 19:52:24.463771 20027 net.cpp:109]     with loss weight 1
I0430 19:52:24.463790 20027 net.cpp:67] Creating Layer reg-loss
I0430 19:52:24.463796 20027 net.cpp:394] reg-loss <- fc8_flickr_fc8_flickr_0_split_1
I0430 19:52:24.463803 20027 net.cpp:394] reg-loss <- label_data_1_split_1
I0430 19:52:24.463809 20027 net.cpp:356] reg-loss -> reg-loss
I0430 19:52:24.463817 20027 net.cpp:96] Setting up reg-loss
I0430 19:52:24.463824 20027 net.cpp:103] Top shape: 1 1 1 1 (1)
I0430 19:52:24.463829 20027 net.cpp:109]     with loss weight 1
I0430 19:52:24.463846 20027 net.cpp:170] reg-loss needs backward computation.
I0430 19:52:24.463853 20027 net.cpp:170] loss needs backward computation.
I0430 19:52:24.463858 20027 net.cpp:170] fc8_flickr_fc8_flickr_0_split needs backward computation.
I0430 19:52:24.463865 20027 net.cpp:170] fc8_flickr needs backward computation.
…
I0430 22:47:24.496857 26448 net.cpp:356] data -> label
I0430 22:47:24.496876 26448 net.cpp:96] Setting up data
I0430 22:47:24.496886 26448 image_data_layer.cpp:31] Opening file /home/ubuntu/Kaggle/trainnet2exp1_prep.csv
I0430 22:47:24.582308 26448 image_data_layer.cpp:43] Shuffling data
I0430 22:47:24.606439 26448 image_data_layer.cpp:48] A total of 188364 images.
"I0430 22:47:24.611208 26448 image_data_layer.cpp:78] output data size: 1,3,227,227"
I0430 22:47:24.611246 26448 base_data_layer.cpp:36] Loading mean file fromdata/ilsvrc12/imagenet_mean.binaryproto
I0430 22:47:24.613068 26448 net.cpp:103] Top shape: 1 3 227 227 (154587)
I0430 22:47:24.613085 26448 net.cpp:103] Top shape: 1 1 1 1 (1)
I0430 22:47:24.613103 26448 net.cpp:67] Creating Layer conv1
I0430 22:47:24.613111 26448 net.cpp:394] conv1 <- data
I0430 22:47:24.613128 26448 net.cpp:356] conv1 -> conv1
I0430 22:47:24.613165 26448 net.cpp:96] Setting up conv1
I0430 22:47:24.636497 26448 net.cpp:103] Top shape: 1 96 55 55 (290400)
I0430 22:47:24.636556 26448 net.cpp:67] Creating Layer relu1
I0430 22:47:24.636565 26448 net.cpp:394] relu1 <- conv1
I0430 22:47:24.636574 26448 net.cpp:345] relu1 -> conv1 (in-place)
I0430 22:47:24.636585 26448 net.cpp:96] Setting up relu1
I0430 22:47:24.636598 26448 net.cpp:103] Top shape: 1 96 55 55 (290400)
I0430 22:47:24.636620 26448 net.cpp:67] Creating Layer pool1
I0430 22:47:24.636626 26448 net.cpp:394] pool1 <- conv1
I0430 22:47:24.636633 26448 net.cpp:356] pool1 -> pool1
I0430 22:47:24.636642 26448 net.cpp:96] Setting up pool1
I0430 22:47:24.636664 26448 net.cpp:103] Top shape: 1 96 27 27 (69984)
I0430 22:47:24.636675 26448 net.cpp:67] Creating Layer norm1
I0430 22:47:24.636682 26448 net.cpp:394] norm1 <- pool1
I0430 22:47:24.636688 26448 net.cpp:356] norm1 -> norm1
I0430 22:47:24.636698 26448 net.cpp:96] Setting up norm1
I0430 22:47:24.636708 26448 net.cpp:103] Top shape: 1 96 27 27 (69984)
I0430 22:47:24.636719 26448 net.cpp:67] Creating Layer conv2
I0430 22:47:24.636725 26448 net.cpp:394] conv2 <- norm1
I0430 22:47:24.636734 26448 net.cpp:356] conv2 -> conv2
I0430 22:47:24.636744 26448 net.cpp:96] Setting up conv2
I0430 22:47:24.647024 26448 net.cpp:103] Top shape: 1 256 27 27 (186624)
I0430 22:47:24.647048 26448 net.cpp:67] Creating Layer relu2
I0430 22:47:24.647055 26448 net.cpp:394] relu2 <- conv2
I0430 22:47:24.647063 26448 net.cpp:345] relu2 -> conv2 (in-place)
I0430 22:47:24.647070 26448 net.cpp:96] Setting up relu2
I0430 22:47:24.647078 26448 net.cpp:103] Top shape: 1 256 27 27 (186624)
I0430 22:47:24.647099 26448 net.cpp:67] Creating Layer pool2
I0430 22:47:24.647104 26448 net.cpp:394] pool2 <- conv2
I0430 22:47:24.647114 26448 net.cpp:356] pool2 -> pool2
I0430 22:47:24.647120 26448 net.cpp:96] Setting up pool2
I0430 22:47:24.647130 26448 net.cpp:103] Top shape: 1 256 13 13 (43264)
I0430 22:47:24.647138 26448 net.cpp:67] Creating Layer norm2
I0430 22:47:24.647143 26448 net.cpp:394] norm2 <- pool2
I0430 22:47:24.647152 26448 net.cpp:356] norm2 -> norm2
I0430 22:47:24.647161 26448 net.cpp:96] Setting up norm2
I0430 22:47:24.647166 26448 net.cpp:103] Top shape: 1 256 13 13 (43264)
I0430 22:47:24.647176 26448 net.cpp:67] Creating Layer conv3
I0430 22:47:24.647182 26448 net.cpp:394] conv3 <- norm2
I0430 22:47:24.647189 26448 net.cpp:356] conv3 -> conv3
I0430 22:47:24.647197 26448 net.cpp:96] Setting up conv3
I0430 22:47:24.676560 26448 net.cpp:103] Top shape: 1 384 13 13 (64896)
I0430 22:47:24.676580 26448 net.cpp:67] Creating Layer relu3
I0430 22:47:24.676587 26448 net.cpp:394] relu3 <- conv3
I0430 22:47:24.676596 26448 net.cpp:345] relu3 -> conv3 (in-place)
I0430 22:47:24.676604 26448 net.cpp:96] Setting up relu3
I0430 22:47:24.676612 26448 net.cpp:103] Top shape: 1 384 13 13 (64896)
I0430 22:47:24.676620 26448 net.cpp:67] Creating Layer conv4
I0430 22:47:24.676628 26448 net.cpp:394] conv4 <- conv3
I0430 22:47:24.676636 26448 net.cpp:356] conv4 -> conv4
I0430 22:47:24.676643 26448 net.cpp:96] Setting up conv4
I0430 22:47:24.698328 26448 net.cpp:103] Top shape: 1 384 13 13 (64896)
I0430 22:47:24.698350 26448 net.cpp:67] Creating Layer relu4
I0430 22:47:24.698357 26448 net.cpp:394] relu4 <- conv4
I0430 22:47:24.698365 26448 net.cpp:345] relu4 -> conv4 (in-place)
I0430 22:47:24.698374 26448 net.cpp:96] Setting up relu4
I0430 22:47:24.698381 26448 net.cpp:103] Top shape: 1 384 13 13 (64896)
I0430 22:47:24.698395 26448 net.cpp:67] Creating Layer conv5
I0430 22:47:24.698401 26448 net.cpp:394] conv5 <- conv4
I0430 22:47:24.698408 26448 net.cpp:356] conv5 -> conv5
I0430 22:47:24.698416 26448 net.cpp:96] Setting up conv5
I0430 22:47:24.713253 26448 net.cpp:103] Top shape: 1 256 13 13 (43264)
I0430 22:47:24.713277 26448 net.cpp:67] Creating Layer relu5
I0430 22:47:24.713284 26448 net.cpp:394] relu5 <- conv5
I0430 22:47:24.713291 26448 net.cpp:345] relu5 -> conv5 (in-place)
I0430 22:47:24.713299 26448 net.cpp:96] Setting up relu5
I0430 22:47:24.713307 26448 net.cpp:103] Top shape: 1 256 13 13 (43264)
I0430 22:47:24.713315 26448 net.cpp:67] Creating Layer pool5
I0430 22:47:24.713320 26448 net.cpp:394] pool5 <- conv5
I0430 22:47:24.713330 26448 net.cpp:356] pool5 -> pool5
I0430 22:47:24.713338 26448 net.cpp:96] Setting up pool5
I0430 22:47:24.713347 26448 net.cpp:103] Top shape: 1 256 6 6 (9216)
I0430 22:47:24.713359 26448 net.cpp:67] Creating Layer fc6
I0430 22:47:24.713366 26448 net.cpp:394] fc6 <- pool5
I0430 22:47:24.713372 26448 net.cpp:356] fc6 -> fc6
I0430 22:47:24.713389 26448 net.cpp:96] Setting up fc6
I0430 22:47:25.932217 26448 net.cpp:103] Top shape: 1 4096 1 1 (4096)
I0430 22:47:25.932278 26448 net.cpp:67] Creating Layer relu6
I0430 22:47:25.932286 26448 net.cpp:394] relu6 <- fc6
I0430 22:47:25.932299 26448 net.cpp:345] relu6 -> fc6 (in-place)
I0430 22:47:25.932310 26448 net.cpp:96] Setting up relu6
I0430 22:47:25.932332 26448 net.cpp:103] Top shape: 1 4096 1 1 (4096)
I0430 22:47:25.932340 26448 net.cpp:67] Creating Layer drop6
I0430 22:47:25.932345 26448 net.cpp:394] drop6 <- fc6
I0430 22:47:25.932355 26448 net.cpp:345] drop6 -> fc6 (in-place)
I0430 22:47:25.932363 26448 net.cpp:96] Setting up drop6
I0430 22:47:25.932375 26448 net.cpp:103] Top shape: 1 4096 1 1 (4096)
I0430 22:47:25.932384 26448 net.cpp:67] Creating Layer fc7
I0430 22:47:25.932389 26448 net.cpp:394] fc7 <- fc6
I0430 22:47:25.932397 26448 net.cpp:356] fc7 -> fc7
I0430 22:47:25.932406 26448 net.cpp:96] Setting up fc7
I0430 22:47:26.475087 26448 net.cpp:103] Top shape: 1 4096 1 1 (4096)
I0430 22:47:26.475143 26448 net.cpp:67] Creating Layer relu7
I0430 22:47:26.475152 26448 net.cpp:394] relu7 <- fc7
I0430 22:47:26.475183 26448 net.cpp:345] relu7 -> fc7 (in-place)
I0430 22:47:26.475194 26448 net.cpp:96] Setting up relu7
I0430 22:47:26.475214 26448 net.cpp:103] Top shape: 1 4096 1 1 (4096)
I0430 22:47:26.475226 26448 net.cpp:67] Creating Layer drop7
I0430 22:47:26.475231 26448 net.cpp:394] drop7 <- fc7
I0430 22:47:26.475239 26448 net.cpp:345] drop7 -> fc7 (in-place)
I0430 22:47:26.475246 26448 net.cpp:96] Setting up drop7
I0430 22:47:26.475252 26448 net.cpp:103] Top shape: 1 4096 1 1 (4096)
I0430 22:47:26.475261 26448 net.cpp:67] Creating Layer fc8_flickr
I0430 22:47:26.475266 26448 net.cpp:394] fc8_flickr <- fc7
I0430 22:47:26.475277 26448 net.cpp:356] fc8_flickr -> fc8_flickr
I0430 22:47:26.475286 26448 net.cpp:96] Setting up fc8_flickr
I0430 22:47:26.475450 26448 net.cpp:103] Top shape: 1 1 1 1 (1)
I0430 22:47:26.475464 26448 net.cpp:67] Creating Layer loss
I0430 22:47:26.475471 26448 net.cpp:394] loss <- fc8_flickr
I0430 22:47:26.475477 26448 net.cpp:394] loss <- label
I0430 22:47:26.475487 26448 net.cpp:356] loss -> (automatic)
I0430 22:47:26.475494 26448 net.cpp:96] Setting up loss
I0430 22:47:26.475502 26448 net.cpp:103] Top shape: 1 1 1 1 (1)
I0430 22:47:26.475507 26448 net.cpp:109]     with loss weight 1
I0430 22:47:26.475549 26448 net.cpp:170] loss needs backward computation.
I0430 22:47:26.475556 26448 net.cpp:170] fc8_flickr needs backward computation.
I0430 22:47:26.475561 26448 net.cpp:170] drop7 needs backward computation.
I0430 22:47:26.475567 26448 net.cpp:170] relu7 needs backward computation.
I0430 22:47:26.475572 26448 net.cpp:170] fc7 needs backward computation.
…
I0430 22:53:12.378073 27150 net.cpp:356] data -> label
I0430 22:53:12.378092 27150 net.cpp:96] Setting up data
I0430 22:53:12.378103 27150 image_data_layer.cpp:31] Opening file /home/ubuntu/Kaggle/trainnet2exp1_prep.csv
I0430 22:53:12.463752 27150 image_data_layer.cpp:43] Shuffling data
I0430 22:53:12.489719 27150 image_data_layer.cpp:48] A total of 188364 images.
"I0430 22:53:12.494076 27150 image_data_layer.cpp:78] output data size: 1,3,227,227"
I0430 22:53:12.494114 27150 base_data_layer.cpp:36] Loading mean file fromdata/ilsvrc12/imagenet_mean.binaryproto
I0430 22:53:12.495931 27150 net.cpp:103] Top shape: 1 3 227 227 (154587)
I0430 22:53:12.495960 27150 net.cpp:103] Top shape: 1 1 1 1 (1)
I0430 22:53:12.495980 27150 net.cpp:67] Creating Layer conv1
I0430 22:53:12.495988 27150 net.cpp:394] conv1 <- data
I0430 22:53:12.496016 27150 net.cpp:356] conv1 -> conv1
I0430 22:53:12.496042 27150 net.cpp:96] Setting up conv1
I0430 22:53:12.519628 27150 net.cpp:103] Top shape: 1 96 55 55 (290400)
I0430 22:53:12.519688 27150 net.cpp:67] Creating Layer relu1
I0430 22:53:12.519698 27150 net.cpp:394] relu1 <- conv1
I0430 22:53:12.519707 27150 net.cpp:345] relu1 -> conv1 (in-place)
I0430 22:53:12.519718 27150 net.cpp:96] Setting up relu1
I0430 22:53:12.519732 27150 net.cpp:103] Top shape: 1 96 55 55 (290400)
I0430 22:53:12.519742 27150 net.cpp:67] Creating Layer pool1
I0430 22:53:12.519747 27150 net.cpp:394] pool1 <- conv1
I0430 22:53:12.519755 27150 net.cpp:356] pool1 -> pool1
I0430 22:53:12.519764 27150 net.cpp:96] Setting up pool1
I0430 22:53:12.519786 27150 net.cpp:103] Top shape: 1 96 27 27 (69984)
I0430 22:53:12.519804 27150 net.cpp:67] Creating Layer norm1
I0430 22:53:12.519810 27150 net.cpp:394] norm1 <- pool1
I0430 22:53:12.519817 27150 net.cpp:356] norm1 -> norm1
I0430 22:53:12.519827 27150 net.cpp:96] Setting up norm1
I0430 22:53:12.519837 27150 net.cpp:103] Top shape: 1 96 27 27 (69984)
I0430 22:53:12.519850 27150 net.cpp:67] Creating Layer conv2
I0430 22:53:12.519856 27150 net.cpp:394] conv2 <- norm1
I0430 22:53:12.519863 27150 net.cpp:356] conv2 -> conv2
I0430 22:53:12.519875 27150 net.cpp:96] Setting up conv2
I0430 22:53:12.530196 27150 net.cpp:103] Top shape: 1 256 27 27 (186624)
I0430 22:53:12.530220 27150 net.cpp:67] Creating Layer relu2
I0430 22:53:12.530227 27150 net.cpp:394] relu2 <- conv2
I0430 22:53:12.530237 27150 net.cpp:345] relu2 -> conv2 (in-place)
I0430 22:53:12.530246 27150 net.cpp:96] Setting up relu2
I0430 22:53:12.530254 27150 net.cpp:103] Top shape: 1 256 27 27 (186624)
I0430 22:53:12.530280 27150 net.cpp:67] Creating Layer pool2
I0430 22:53:12.530287 27150 net.cpp:394] pool2 <- conv2
I0430 22:53:12.530294 27150 net.cpp:356] pool2 -> pool2
I0430 22:53:12.530306 27150 net.cpp:96] Setting up pool2
I0430 22:53:12.530318 27150 net.cpp:103] Top shape: 1 256 13 13 (43264)
I0430 22:53:12.530328 27150 net.cpp:67] Creating Layer norm2
I0430 22:53:12.530333 27150 net.cpp:394] norm2 <- pool2
I0430 22:53:12.530342 27150 net.cpp:356] norm2 -> norm2
I0430 22:53:12.530350 27150 net.cpp:96] Setting up norm2
I0430 22:53:12.530356 27150 net.cpp:103] Top shape: 1 256 13 13 (43264)
I0430 22:53:12.530365 27150 net.cpp:67] Creating Layer conv3
I0430 22:53:12.530371 27150 net.cpp:394] conv3 <- norm2
I0430 22:53:12.530381 27150 net.cpp:356] conv3 -> conv3
I0430 22:53:12.530390 27150 net.cpp:96] Setting up conv3
I0430 22:53:12.559782 27150 net.cpp:103] Top shape: 1 384 13 13 (64896)
I0430 22:53:12.559804 27150 net.cpp:67] Creating Layer relu3
I0430 22:53:12.559811 27150 net.cpp:394] relu3 <- conv3
I0430 22:53:12.559823 27150 net.cpp:345] relu3 -> conv3 (in-place)
I0430 22:53:12.559830 27150 net.cpp:96] Setting up relu3
I0430 22:53:12.559839 27150 net.cpp:103] Top shape: 1 384 13 13 (64896)
I0430 22:53:12.559852 27150 net.cpp:67] Creating Layer conv4
I0430 22:53:12.559864 27150 net.cpp:394] conv4 <- conv3
I0430 22:53:12.559878 27150 net.cpp:356] conv4 -> conv4
I0430 22:53:12.559890 27150 net.cpp:96] Setting up conv4
I0430 22:53:12.581676 27150 net.cpp:103] Top shape: 1 384 13 13 (64896)
I0430 22:53:12.581701 27150 net.cpp:67] Creating Layer relu4
I0430 22:53:12.581707 27150 net.cpp:394] relu4 <- conv4
I0430 22:53:12.581715 27150 net.cpp:345] relu4 -> conv4 (in-place)
I0430 22:53:12.581724 27150 net.cpp:96] Setting up relu4
I0430 22:53:12.581732 27150 net.cpp:103] Top shape: 1 384 13 13 (64896)
I0430 22:53:12.581744 27150 net.cpp:67] Creating Layer conv5
I0430 22:53:12.581750 27150 net.cpp:394] conv5 <- conv4
I0430 22:53:12.581758 27150 net.cpp:356] conv5 -> conv5
I0430 22:53:12.581766 27150 net.cpp:96] Setting up conv5
I0430 22:53:12.596524 27150 net.cpp:103] Top shape: 1 256 13 13 (43264)
I0430 22:53:12.596554 27150 net.cpp:67] Creating Layer relu5
I0430 22:53:12.596565 27150 net.cpp:394] relu5 <- conv5
I0430 22:53:12.596571 27150 net.cpp:345] relu5 -> conv5 (in-place)
I0430 22:53:12.596580 27150 net.cpp:96] Setting up relu5
I0430 22:53:12.596588 27150 net.cpp:103] Top shape: 1 256 13 13 (43264)
I0430 22:53:12.596597 27150 net.cpp:67] Creating Layer pool5
I0430 22:53:12.596602 27150 net.cpp:394] pool5 <- conv5
I0430 22:53:12.596611 27150 net.cpp:356] pool5 -> pool5
I0430 22:53:12.596617 27150 net.cpp:96] Setting up pool5
I0430 22:53:12.596627 27150 net.cpp:103] Top shape: 1 256 6 6 (9216)
I0430 22:53:12.596640 27150 net.cpp:67] Creating Layer fc6
I0430 22:53:12.596647 27150 net.cpp:394] fc6 <- pool5
I0430 22:53:12.596657 27150 net.cpp:356] fc6 -> fc6
I0430 22:53:12.596665 27150 net.cpp:96] Setting up fc6
I0430 22:53:13.823323 27150 net.cpp:103] Top shape: 1 4096 1 1 (4096)
I0430 22:53:13.823384 27150 net.cpp:67] Creating Layer relu6
I0430 22:53:13.823391 27150 net.cpp:394] relu6 <- fc6
I0430 22:53:13.823405 27150 net.cpp:345] relu6 -> fc6 (in-place)
I0430 22:53:13.823416 27150 net.cpp:96] Setting up relu6
I0430 22:53:13.823438 27150 net.cpp:103] Top shape: 1 4096 1 1 (4096)
I0430 22:53:13.823447 27150 net.cpp:67] Creating Layer drop6
I0430 22:53:13.823453 27150 net.cpp:394] drop6 <- fc6
I0430 22:53:13.823462 27150 net.cpp:345] drop6 -> fc6 (in-place)
I0430 22:53:13.823468 27150 net.cpp:96] Setting up drop6
I0430 22:53:13.823482 27150 net.cpp:103] Top shape: 1 4096 1 1 (4096)
I0430 22:53:13.823493 27150 net.cpp:67] Creating Layer fc7
I0430 22:53:13.823499 27150 net.cpp:394] fc7 <- fc6
I0430 22:53:13.823508 27150 net.cpp:356] fc7 -> fc7
I0430 22:53:13.823518 27150 net.cpp:96] Setting up fc7
libdc1394 error: Failed to initialize libdc1394
I0430 22:54:51.433733 27168 caffe.cpp:99] Use GPU with device ID 0
I0430 22:54:51.776111 27168 caffe.cpp:107] Starting Optimization
…
I0501 14:58:09.962662 13825 net.cpp:356] data -> label
I0501 14:58:09.962680 13825 net.cpp:96] Setting up data
I0501 14:58:09.962692 13825 image_data_layer.cpp:31] Opening file /home/ubuntu/Kaggle/traint9_prep.csv
I0501 14:58:10.180338 13825 image_data_layer.cpp:43] Shuffling data
I0501 14:58:10.268821 13825 image_data_layer.cpp:48] A total of 454927 images.
"I0501 14:58:10.275542 13825 image_data_layer.cpp:78] output data size: 300,3,227,227"
I0501 14:58:10.275583 13825 base_data_layer.cpp:36] Loading mean file fromdata/ilsvrc12/imagenet_mean.binaryproto
I0501 14:58:10.416379 13825 net.cpp:103] Top shape: 300 3 227 227 (46376100)
I0501 14:58:10.416424 13825 net.cpp:103] Top shape: 300 1 1 1 (300)
I0501 14:58:10.416447 13825 net.cpp:67] Creating Layer conv1
I0501 14:58:10.416455 13825 net.cpp:394] conv1 <- data
I0501 14:58:10.416474 13825 net.cpp:356] conv1 -> conv1
I0501 14:58:10.416501 13825 net.cpp:96] Setting up conv1
I0501 14:58:10.440862 13825 net.cpp:103] Top shape: 300 96 55 55 (87120000)
I0501 14:58:10.440927 13825 net.cpp:67] Creating Layer relu1
I0501 14:58:10.440935 13825 net.cpp:394] relu1 <- conv1
I0501 14:58:10.440945 13825 net.cpp:345] relu1 -> conv1 (in-place)
I0501 14:58:10.440958 13825 net.cpp:96] Setting up relu1
I0501 14:58:10.440971 13825 net.cpp:103] Top shape: 300 96 55 55 (87120000)
I0501 14:58:10.440981 13825 net.cpp:67] Creating Layer pool1
I0501 14:58:10.440986 13825 net.cpp:394] pool1 <- conv1
I0501 14:58:10.440999 13825 net.cpp:356] pool1 -> pool1
I0501 14:58:10.441009 13825 net.cpp:96] Setting up pool1
I0501 14:58:10.441032 13825 net.cpp:103] Top shape: 300 96 27 27 (20995200)
I0501 14:58:10.441043 13825 net.cpp:67] Creating Layer norm1
I0501 14:58:10.441050 13825 net.cpp:394] norm1 <- pool1
I0501 14:58:10.441058 13825 net.cpp:356] norm1 -> norm1
I0501 14:58:10.441067 13825 net.cpp:96] Setting up norm1
I0501 14:58:10.441078 13825 net.cpp:103] Top shape: 300 96 27 27 (20995200)
I0501 14:58:10.441092 13825 net.cpp:67] Creating Layer conv2
I0501 14:58:10.441097 13825 net.cpp:394] conv2 <- norm1
I0501 14:58:10.441104 13825 net.cpp:356] conv2 -> conv2
I0501 14:58:10.441113 13825 net.cpp:96] Setting up conv2
I0501 14:58:10.451768 13825 net.cpp:103] Top shape: 300 256 27 27 (55987200)
I0501 14:58:10.451798 13825 net.cpp:67] Creating Layer relu2
I0501 14:58:10.451807 13825 net.cpp:394] relu2 <- conv2
I0501 14:58:10.451813 13825 net.cpp:345] relu2 -> conv2 (in-place)
I0501 14:58:10.451822 13825 net.cpp:96] Setting up relu2
I0501 14:58:10.451833 13825 net.cpp:103] Top shape: 300 256 27 27 (55987200)
I0501 14:58:10.451858 13825 net.cpp:67] Creating Layer pool2
I0501 14:58:10.451864 13825 net.cpp:394] pool2 <- conv2
I0501 14:58:10.451871 13825 net.cpp:356] pool2 -> pool2
I0501 14:58:10.451879 13825 net.cpp:96] Setting up pool2
I0501 14:58:10.451889 13825 net.cpp:103] Top shape: 300 256 13 13 (12979200)
I0501 14:58:10.451900 13825 net.cpp:67] Creating Layer norm2
I0501 14:58:10.451905 13825 net.cpp:394] norm2 <- pool2
I0501 14:58:10.451912 13825 net.cpp:356] norm2 -> norm2
I0501 14:58:10.451920 13825 net.cpp:96] Setting up norm2
I0501 14:58:10.451925 13825 net.cpp:103] Top shape: 300 256 13 13 (12979200)
I0501 14:58:10.451936 13825 net.cpp:67] Creating Layer conv3
I0501 14:58:10.451942 13825 net.cpp:394] conv3 <- norm2
I0501 14:58:10.451949 13825 net.cpp:356] conv3 -> conv3
I0501 14:58:10.451958 13825 net.cpp:96] Setting up conv3
I0501 14:58:10.482981 13825 net.cpp:103] Top shape: 300 384 13 13 (19468800)
I0501 14:58:10.483031 13825 net.cpp:67] Creating Layer relu3
I0501 14:58:10.483042 13825 net.cpp:394] relu3 <- conv3
I0501 14:58:10.483050 13825 net.cpp:345] relu3 -> conv3 (in-place)
I0501 14:58:10.483060 13825 net.cpp:96] Setting up relu3
I0501 14:58:10.483070 13825 net.cpp:103] Top shape: 300 384 13 13 (19468800)
I0501 14:58:10.483083 13825 net.cpp:67] Creating Layer conv4
I0501 14:58:10.483088 13825 net.cpp:394] conv4 <- conv3
I0501 14:58:10.483096 13825 net.cpp:356] conv4 -> conv4
I0501 14:58:10.483105 13825 net.cpp:96] Setting up conv4
I0501 14:58:10.505965 13825 net.cpp:103] Top shape: 300 384 13 13 (19468800)
I0501 14:58:10.506005 13825 net.cpp:67] Creating Layer relu4
I0501 14:58:10.506012 13825 net.cpp:394] relu4 <- conv4
I0501 14:58:10.506024 13825 net.cpp:345] relu4 -> conv4 (in-place)
I0501 14:58:10.506034 13825 net.cpp:96] Setting up relu4
I0501 14:58:10.506043 13825 net.cpp:103] Top shape: 300 384 13 13 (19468800)
I0501 14:58:10.506053 13825 net.cpp:67] Creating Layer conv5
I0501 14:58:10.506059 13825 net.cpp:394] conv5 <- conv4
I0501 14:58:10.506069 13825 net.cpp:356] conv5 -> conv5
I0501 14:58:10.506078 13825 net.cpp:96] Setting up conv5
I0501 14:58:10.521183 13825 net.cpp:103] Top shape: 300 256 13 13 (12979200)
I0501 14:58:10.521220 13825 net.cpp:67] Creating Layer relu5
I0501 14:58:10.521227 13825 net.cpp:394] relu5 <- conv5
I0501 14:58:10.521236 13825 net.cpp:345] relu5 -> conv5 (in-place)
I0501 14:58:10.521247 13825 net.cpp:96] Setting up relu5
I0501 14:58:10.521263 13825 net.cpp:103] Top shape: 300 256 13 13 (12979200)
I0501 14:58:10.521281 13825 net.cpp:67] Creating Layer pool5
I0501 14:58:10.521291 13825 net.cpp:394] pool5 <- conv5
I0501 14:58:10.521302 13825 net.cpp:356] pool5 -> pool5
I0501 14:58:10.521314 13825 net.cpp:96] Setting up pool5
I0501 14:58:10.521332 13825 net.cpp:103] Top shape: 300 256 6 6 (2764800)
I0501 14:58:10.521353 13825 net.cpp:67] Creating Layer fc6
I0501 14:58:10.521363 13825 net.cpp:394] fc6 <- pool5
I0501 14:58:10.521374 13825 net.cpp:356] fc6 -> fc6
I0501 14:58:10.521386 13825 net.cpp:96] Setting up fc6
I0501 14:58:11.851881 13825 net.cpp:103] Top shape: 300 4096 1 1 (1228800)
I0501 14:58:11.851935 13825 net.cpp:67] Creating Layer relu6
I0501 14:58:11.851944 13825 net.cpp:394] relu6 <- fc6
I0501 14:58:11.851954 13825 net.cpp:345] relu6 -> fc6 (in-place)
I0501 14:58:11.851965 13825 net.cpp:96] Setting up relu6
I0501 14:58:11.851986 13825 net.cpp:103] Top shape: 300 4096 1 1 (1228800)
I0501 14:58:11.851995 13825 net.cpp:67] Creating Layer drop6
I0501 14:58:11.852001 13825 net.cpp:394] drop6 <- fc6
I0501 14:58:11.852008 13825 net.cpp:345] drop6 -> fc6 (in-place)
I0501 14:58:11.852015 13825 net.cpp:96] Setting up drop6
I0501 14:58:11.852027 13825 net.cpp:103] Top shape: 300 4096 1 1 (1228800)
I0501 14:58:11.852038 13825 net.cpp:67] Creating Layer fc7
I0501 14:58:11.852044 13825 net.cpp:394] fc7 <- fc6
I0501 14:58:11.852052 13825 net.cpp:356] fc7 -> fc7
I0501 14:58:11.852061 13825 net.cpp:96] Setting up fc7
I0501 14:58:12.434726 13825 net.cpp:103] Top shape: 300 4096 1 1 (1228800)
I0501 14:58:12.434785 13825 net.cpp:67] Creating Layer relu7
I0501 14:58:12.434815 13825 net.cpp:394] relu7 <- fc7
I0501 14:58:12.434828 13825 net.cpp:345] relu7 -> fc7 (in-place)
I0501 14:58:12.434839 13825 net.cpp:96] Setting up relu7
I0501 14:58:12.434861 13825 net.cpp:103] Top shape: 300 4096 1 1 (1228800)
I0501 14:58:12.434870 13825 net.cpp:67] Creating Layer drop7
I0501 14:58:12.434875 13825 net.cpp:394] drop7 <- fc7
I0501 14:58:12.434882 13825 net.cpp:345] drop7 -> fc7 (in-place)
I0501 14:58:12.434896 13825 net.cpp:96] Setting up drop7
I0501 14:58:12.434903 13825 net.cpp:103] Top shape: 300 4096 1 1 (1228800)
I0501 14:58:12.434912 13825 net.cpp:67] Creating Layer fc8_flickr
I0501 14:58:12.434918 13825 net.cpp:394] fc8_flickr <- fc7
I0501 14:58:12.434926 13825 net.cpp:356] fc8_flickr -> fc8_flickr
I0501 14:58:12.434936 13825 net.cpp:96] Setting up fc8_flickr
I0501 14:58:12.435223 13825 net.cpp:103] Top shape: 300 2 1 1 (600)
I0501 14:58:12.435236 13825 net.cpp:67] Creating Layer loss
I0501 14:58:12.435241 13825 net.cpp:394] loss <- fc8_flickr
I0501 14:58:12.435250 13825 net.cpp:394] loss <- label
I0501 14:58:12.435258 13825 net.cpp:356] loss -> (automatic)
I0501 14:58:12.435266 13825 net.cpp:96] Setting up loss
I0501 14:58:12.435272 13825 net.cpp:103] Top shape: 1 1 1 1 (1)
I0501 14:58:12.435277 13825 net.cpp:109]     with loss weight 1
I0501 14:58:12.435333 13825 net.cpp:170] loss needs backward computation.
I0501 14:58:12.435340 13825 net.cpp:170] fc8_flickr needs backward computation.
I0501 14:58:12.435346 13825 net.cpp:170] drop7 needs backward computation.
I0501 14:58:12.435359 13825 net.cpp:170] relu7 needs backward computation.
I0501 14:58:12.435364 13825 net.cpp:170] fc7 needs backward computation.
…
I0501 14:58:12.436478 13825 net.cpp:67] Creating Layer data
I0501 14:58:12.436489 13825 net.cpp:356] data -> data
I0501 14:58:12.436501 13825 net.cpp:356] data -> label
I0501 14:58:12.436509 13825 net.cpp:96] Setting up data
I0501 14:58:12.436516 13825 image_data_layer.cpp:31] Opening file /home/ubuntu/Kaggle/valt8.csv
I0501 14:58:12.440898 13825 image_data_layer.cpp:48] A total of 10263 images.
"I0501 14:58:12.443747 13825 image_data_layer.cpp:78] output data size: 300,3,227,227"
I0501 14:58:12.443768 13825 base_data_layer.cpp:36] Loading mean file fromdata/ilsvrc12/imagenet_mean.binaryproto
I0501 14:58:12.583432 13825 net.cpp:103] Top shape: 300 3 227 227 (46376100)
I0501 14:58:12.583475 13825 net.cpp:103] Top shape: 300 1 1 1 (300)
I0501 14:58:12.583492 13825 net.cpp:67] Creating Layer label_data_1_split
I0501 14:58:12.583500 13825 net.cpp:394] label_data_1_split <- label
I0501 14:58:12.583515 13825 net.cpp:356] label_data_1_split -> label_data_1_split_0
I0501 14:58:12.583531 13825 net.cpp:356] label_data_1_split -> label_data_1_split_1
I0501 14:58:12.583539 13825 net.cpp:96] Setting up label_data_1_split
I0501 14:58:12.583560 13825 net.cpp:103] Top shape: 300 1 1 1 (300)
I0501 14:58:12.583580 13825 net.cpp:103] Top shape: 300 1 1 1 (300)
I0501 14:58:12.583591 13825 net.cpp:67] Creating Layer conv1
I0501 14:58:12.583597 13825 net.cpp:394] conv1 <- data
I0501 14:58:12.583606 13825 net.cpp:356] conv1 -> conv1
I0501 14:58:12.583616 13825 net.cpp:96] Setting up conv1
I0501 14:58:12.584847 13825 net.cpp:103] Top shape: 300 96 55 55 (87120000)
I0501 14:58:12.584872 13825 net.cpp:67] Creating Layer relu1
I0501 14:58:12.584877 13825 net.cpp:394] relu1 <- conv1
I0501 14:58:12.584887 13825 net.cpp:345] relu1 -> conv1 (in-place)
I0501 14:58:12.584894 13825 net.cpp:96] Setting up relu1
I0501 14:58:12.584903 13825 net.cpp:103] Top shape: 300 96 55 55 (87120000)
I0501 14:58:12.584913 13825 net.cpp:67] Creating Layer pool1
I0501 14:58:12.584918 13825 net.cpp:394] pool1 <- conv1
I0501 14:58:12.584926 13825 net.cpp:356] pool1 -> pool1
I0501 14:58:12.584934 13825 net.cpp:96] Setting up pool1
I0501 14:58:12.584944 13825 net.cpp:103] Top shape: 300 96 27 27 (20995200)
I0501 14:58:12.584954 13825 net.cpp:67] Creating Layer norm1
I0501 14:58:12.584962 13825 net.cpp:394] norm1 <- pool1
I0501 14:58:12.584970 13825 net.cpp:356] norm1 -> norm1
I0501 14:58:12.584977 13825 net.cpp:96] Setting up norm1
I0501 14:58:12.584985 13825 net.cpp:103] Top shape: 300 96 27 27 (20995200)
I0501 14:58:12.584995 13825 net.cpp:67] Creating Layer conv2
I0501 14:58:12.585000 13825 net.cpp:394] conv2 <- norm1
I0501 14:58:12.585007 13825 net.cpp:356] conv2 -> conv2
I0501 14:58:12.585016 13825 net.cpp:96] Setting up conv2
I0501 14:58:12.595191 13825 net.cpp:103] Top shape: 300 256 27 27 (55987200)
I0501 14:58:12.595212 13825 net.cpp:67] Creating Layer relu2
I0501 14:58:12.595222 13825 net.cpp:394] relu2 <- conv2
I0501 14:58:12.595229 13825 net.cpp:345] relu2 -> conv2 (in-place)
I0501 14:58:12.595238 13825 net.cpp:96] Setting up relu2
I0501 14:58:12.595247 13825 net.cpp:103] Top shape: 300 256 27 27 (55987200)
I0501 14:58:12.595257 13825 net.cpp:67] Creating Layer pool2
I0501 14:58:12.595263 13825 net.cpp:394] pool2 <- conv2
I0501 14:58:12.595269 13825 net.cpp:356] pool2 -> pool2
I0501 14:58:12.595279 13825 net.cpp:96] Setting up pool2
I0501 14:58:12.595289 13825 net.cpp:103] Top shape: 300 256 13 13 (12979200)
I0501 14:58:12.595298 13825 net.cpp:67] Creating Layer norm2
I0501 14:58:12.595334 13825 net.cpp:394] norm2 <- pool2
I0501 14:58:12.595342 13825 net.cpp:356] norm2 -> norm2
I0501 14:58:12.595360 13825 net.cpp:96] Setting up norm2
I0501 14:58:12.595366 13825 net.cpp:103] Top shape: 300 256 13 13 (12979200)
I0501 14:58:12.595376 13825 net.cpp:67] Creating Layer conv3
I0501 14:58:12.595381 13825 net.cpp:394] conv3 <- norm2
I0501 14:58:12.595403 13825 net.cpp:356] conv3 -> conv3
I0501 14:58:12.595412 13825 net.cpp:96] Setting up conv3
I0501 14:58:12.625677 13825 net.cpp:103] Top shape: 300 384 13 13 (19468800)
I0501 14:58:12.625715 13825 net.cpp:67] Creating Layer relu3
I0501 14:58:12.625722 13825 net.cpp:394] relu3 <- conv3
I0501 14:58:12.625730 13825 net.cpp:345] relu3 -> conv3 (in-place)
I0501 14:58:12.625741 13825 net.cpp:96] Setting up relu3
I0501 14:58:12.625749 13825 net.cpp:103] Top shape: 300 384 13 13 (19468800)
I0501 14:58:12.625759 13825 net.cpp:67] Creating Layer conv4
I0501 14:58:12.625766 13825 net.cpp:394] conv4 <- conv3
I0501 14:58:12.625772 13825 net.cpp:356] conv4 -> conv4
I0501 14:58:12.625782 13825 net.cpp:96] Setting up conv4
I0501 14:58:12.647451 13825 net.cpp:103] Top shape: 300 384 13 13 (19468800)
I0501 14:58:12.647474 13825 net.cpp:67] Creating Layer relu4
I0501 14:58:12.647480 13825 net.cpp:394] relu4 <- conv4
I0501 14:58:12.647488 13825 net.cpp:345] relu4 -> conv4 (in-place)
I0501 14:58:12.647495 13825 net.cpp:96] Setting up relu4
I0501 14:58:12.647505 13825 net.cpp:103] Top shape: 300 384 13 13 (19468800)
I0501 14:58:12.647516 13825 net.cpp:67] Creating Layer conv5
I0501 14:58:12.647521 13825 net.cpp:394] conv5 <- conv4
I0501 14:58:12.647529 13825 net.cpp:356] conv5 -> conv5
I0501 14:58:12.647537 13825 net.cpp:96] Setting up conv5
I0501 14:58:12.662606 13825 net.cpp:103] Top shape: 300 256 13 13 (12979200)
I0501 14:58:12.662642 13825 net.cpp:67] Creating Layer relu5
I0501 14:58:12.662648 13825 net.cpp:394] relu5 <- conv5
I0501 14:58:12.662664 13825 net.cpp:345] relu5 -> conv5 (in-place)
I0501 14:58:12.662672 13825 net.cpp:96] Setting up relu5
I0501 14:58:12.662681 13825 net.cpp:103] Top shape: 300 256 13 13 (12979200)
I0501 14:58:12.662694 13825 net.cpp:67] Creating Layer pool5
I0501 14:58:12.662700 13825 net.cpp:394] pool5 <- conv5
I0501 14:58:12.662708 13825 net.cpp:356] pool5 -> pool5
I0501 14:58:12.662716 13825 net.cpp:96] Setting up pool5
I0501 14:58:12.662726 13825 net.cpp:103] Top shape: 300 256 6 6 (2764800)
I0501 14:58:12.662735 13825 net.cpp:67] Creating Layer fc6
I0501 14:58:12.662741 13825 net.cpp:394] fc6 <- pool5
I0501 14:58:12.662751 13825 net.cpp:356] fc6 -> fc6
I0501 14:58:12.662760 13825 net.cpp:96] Setting up fc6
I0501 14:58:14.123558 13825 net.cpp:103] Top shape: 300 4096 1 1 (1228800)
I0501 14:58:14.123616 13825 net.cpp:67] Creating Layer relu6
I0501 14:58:14.123625 13825 net.cpp:394] relu6 <- fc6
I0501 14:58:14.123636 13825 net.cpp:345] relu6 -> fc6 (in-place)
I0501 14:58:14.123646 13825 net.cpp:96] Setting up relu6
I0501 14:58:14.123668 13825 net.cpp:103] Top shape: 300 4096 1 1 (1228800)
I0501 14:58:14.123680 13825 net.cpp:67] Creating Layer drop6
I0501 14:58:14.123687 13825 net.cpp:394] drop6 <- fc6
I0501 14:58:14.123693 13825 net.cpp:345] drop6 -> fc6 (in-place)
I0501 14:58:14.123702 13825 net.cpp:96] Setting up drop6
I0501 14:58:14.123708 13825 net.cpp:103] Top shape: 300 4096 1 1 (1228800)
I0501 14:58:14.123716 13825 net.cpp:67] Creating Layer fc7
I0501 14:58:14.123723 13825 net.cpp:394] fc7 <- fc6
I0501 14:58:14.123730 13825 net.cpp:356] fc7 -> fc7
I0501 14:58:14.123739 13825 net.cpp:96] Setting up fc7
I0501 14:58:14.752204 13825 net.cpp:103] Top shape: 300 4096 1 1 (1228800)
I0501 14:58:14.752271 13825 net.cpp:67] Creating Layer relu7
I0501 14:58:14.752280 13825 net.cpp:394] relu7 <- fc7
I0501 14:58:14.752291 13825 net.cpp:345] relu7 -> fc7 (in-place)
I0501 14:58:14.752302 13825 net.cpp:96] Setting up relu7
I0501 14:58:14.752324 13825 net.cpp:103] Top shape: 300 4096 1 1 (1228800)
I0501 14:58:14.752336 13825 net.cpp:67] Creating Layer drop7
I0501 14:58:14.752341 13825 net.cpp:394] drop7 <- fc7
I0501 14:58:14.752348 13825 net.cpp:345] drop7 -> fc7 (in-place)
I0501 14:58:14.752356 13825 net.cpp:96] Setting up drop7
I0501 14:58:14.752362 13825 net.cpp:103] Top shape: 300 4096 1 1 (1228800)
I0501 14:58:14.752370 13825 net.cpp:67] Creating Layer fc8_flickr
I0501 14:58:14.752377 13825 net.cpp:394] fc8_flickr <- fc7
I0501 14:58:14.752387 13825 net.cpp:356] fc8_flickr -> fc8_flickr
I0501 14:58:14.752419 13825 net.cpp:96] Setting up fc8_flickr
I0501 14:58:14.752738 13825 net.cpp:103] Top shape: 300 2 1 1 (600)
I0501 14:58:14.752751 13825 net.cpp:67] Creating Layer fc8_flickr_fc8_flickr_0_split
I0501 14:58:14.752760 13825 net.cpp:394] fc8_flickr_fc8_flickr_0_split <- fc8_flickr
I0501 14:58:14.752768 13825 net.cpp:356] fc8_flickr_fc8_flickr_0_split -> fc8_flickr_fc8_flickr_0_split_0
I0501 14:58:14.752779 13825 net.cpp:356] fc8_flickr_fc8_flickr_0_split -> fc8_flickr_fc8_flickr_0_split_1
I0501 14:58:14.752787 13825 net.cpp:96] Setting up fc8_flickr_fc8_flickr_0_split
I0501 14:58:14.752794 13825 net.cpp:103] Top shape: 300 2 1 1 (600)
I0501 14:58:14.752800 13825 net.cpp:103] Top shape: 300 2 1 1 (600)
I0501 14:58:14.752807 13825 net.cpp:67] Creating Layer loss
I0501 14:58:14.752812 13825 net.cpp:394] loss <- fc8_flickr_fc8_flickr_0_split_0
I0501 14:58:14.752820 13825 net.cpp:394] loss <- label_data_1_split_0
I0501 14:58:14.752826 13825 net.cpp:356] loss -> (automatic)
I0501 14:58:14.752832 13825 net.cpp:96] Setting up loss
I0501 14:58:14.752840 13825 net.cpp:103] Top shape: 1 1 1 1 (1)
I0501 14:58:14.752845 13825 net.cpp:109]     with loss weight 1
I0501 14:58:14.752867 13825 net.cpp:67] Creating Layer accuracy
I0501 14:58:14.752873 13825 net.cpp:394] accuracy <- fc8_flickr_fc8_flickr_0_split_1
I0501 14:58:14.752881 13825 net.cpp:394] accuracy <- label_data_1_split_1
I0501 14:58:14.752888 13825 net.cpp:356] accuracy -> accuracy
I0501 14:58:14.752903 13825 net.cpp:96] Setting up accuracy
I0501 14:58:14.752909 13825 net.cpp:103] Top shape: 1 1 1 1 (1)
I0501 14:58:14.752915 13825 net.cpp:172] accuracy does not need backward computation.
I0501 14:58:14.752920 13825 net.cpp:170] loss needs backward computation.
I0501 14:58:14.752926 13825 net.cpp:170] fc8_flickr_fc8_flickr_0_split needs backward computation.
I0501 14:58:14.752931 13825 net.cpp:170] fc8_flickr needs backward computation.
I0501 14:58:14.752936 13825 net.cpp:170] drop7 needs backward computation.
…
I0501 15:01:04.307755 14022 net.cpp:356] data -> label
I0501 15:01:04.307773 14022 net.cpp:96] Setting up data
I0501 15:01:04.307785 14022 image_data_layer.cpp:31] Opening file /home/ubuntu/Kaggle/traint9_prep.csv
I0501 15:01:04.523406 14022 image_data_layer.cpp:43] Shuffling data
I0501 15:01:04.614711 14022 image_data_layer.cpp:48] A total of 454927 images.
"I0501 15:01:04.619853 14022 image_data_layer.cpp:78] output data size: 250,3,227,227"
I0501 15:01:04.619894 14022 base_data_layer.cpp:36] Loading mean file fromdata/ilsvrc12/imagenet_mean.binaryproto
I0501 15:01:04.657853 14022 net.cpp:103] Top shape: 250 3 227 227 (38646750)
I0501 15:01:04.657899 14022 net.cpp:103] Top shape: 250 1 1 1 (250)
I0501 15:01:04.657922 14022 net.cpp:67] Creating Layer conv1
I0501 15:01:04.657929 14022 net.cpp:394] conv1 <- data
I0501 15:01:04.657979 14022 net.cpp:356] conv1 -> conv1
I0501 15:01:04.658009 14022 net.cpp:96] Setting up conv1
I0501 15:01:04.682515 14022 net.cpp:103] Top shape: 250 96 55 55 (72600000)
I0501 15:01:04.682575 14022 net.cpp:67] Creating Layer relu1
I0501 15:01:04.682585 14022 net.cpp:394] relu1 <- conv1
I0501 15:01:04.682595 14022 net.cpp:345] relu1 -> conv1 (in-place)
I0501 15:01:04.682605 14022 net.cpp:96] Setting up relu1
I0501 15:01:04.682620 14022 net.cpp:103] Top shape: 250 96 55 55 (72600000)
I0501 15:01:04.682628 14022 net.cpp:67] Creating Layer pool1
I0501 15:01:04.682634 14022 net.cpp:394] pool1 <- conv1
I0501 15:01:04.682642 14022 net.cpp:356] pool1 -> pool1
I0501 15:01:04.682651 14022 net.cpp:96] Setting up pool1
I0501 15:01:04.682672 14022 net.cpp:103] Top shape: 250 96 27 27 (17496000)
I0501 15:01:04.682683 14022 net.cpp:67] Creating Layer norm1
I0501 15:01:04.682689 14022 net.cpp:394] norm1 <- pool1
I0501 15:01:04.682696 14022 net.cpp:356] norm1 -> norm1
I0501 15:01:04.682705 14022 net.cpp:96] Setting up norm1
I0501 15:01:04.682715 14022 net.cpp:103] Top shape: 250 96 27 27 (17496000)
I0501 15:01:04.682725 14022 net.cpp:67] Creating Layer conv2
I0501 15:01:04.682731 14022 net.cpp:394] conv2 <- norm1
I0501 15:01:04.682739 14022 net.cpp:356] conv2 -> conv2
I0501 15:01:04.682747 14022 net.cpp:96] Setting up conv2
I0501 15:01:04.693353 14022 net.cpp:103] Top shape: 250 256 27 27 (46656000)
I0501 15:01:04.693408 14022 net.cpp:67] Creating Layer relu2
I0501 15:01:04.693415 14022 net.cpp:394] relu2 <- conv2
I0501 15:01:04.693424 14022 net.cpp:345] relu2 -> conv2 (in-place)
I0501 15:01:04.693434 14022 net.cpp:96] Setting up relu2
I0501 15:01:04.693442 14022 net.cpp:103] Top shape: 250 256 27 27 (46656000)
I0501 15:01:04.693462 14022 net.cpp:67] Creating Layer pool2
I0501 15:01:04.693469 14022 net.cpp:394] pool2 <- conv2
I0501 15:01:04.693477 14022 net.cpp:356] pool2 -> pool2
I0501 15:01:04.693486 14022 net.cpp:96] Setting up pool2
I0501 15:01:04.693496 14022 net.cpp:103] Top shape: 250 256 13 13 (10816000)
I0501 15:01:04.693508 14022 net.cpp:67] Creating Layer norm2
I0501 15:01:04.693514 14022 net.cpp:394] norm2 <- pool2
I0501 15:01:04.693521 14022 net.cpp:356] norm2 -> norm2
I0501 15:01:04.693528 14022 net.cpp:96] Setting up norm2
I0501 15:01:04.693536 14022 net.cpp:103] Top shape: 250 256 13 13 (10816000)
I0501 15:01:04.693547 14022 net.cpp:67] Creating Layer conv3
I0501 15:01:04.693552 14022 net.cpp:394] conv3 <- norm2
I0501 15:01:04.693559 14022 net.cpp:356] conv3 -> conv3
I0501 15:01:04.693567 14022 net.cpp:96] Setting up conv3
I0501 15:01:04.723773 14022 net.cpp:103] Top shape: 250 384 13 13 (16224000)
I0501 15:01:04.723824 14022 net.cpp:67] Creating Layer relu3
I0501 15:01:04.723832 14022 net.cpp:394] relu3 <- conv3
I0501 15:01:04.723842 14022 net.cpp:345] relu3 -> conv3 (in-place)
I0501 15:01:04.723852 14022 net.cpp:96] Setting up relu3
I0501 15:01:04.723861 14022 net.cpp:103] Top shape: 250 384 13 13 (16224000)
I0501 15:01:04.723875 14022 net.cpp:67] Creating Layer conv4
I0501 15:01:04.723881 14022 net.cpp:394] conv4 <- conv3
I0501 15:01:04.723887 14022 net.cpp:356] conv4 -> conv4
I0501 15:01:04.723896 14022 net.cpp:96] Setting up conv4
I0501 15:01:04.746286 14022 net.cpp:103] Top shape: 250 384 13 13 (16224000)
I0501 15:01:04.746337 14022 net.cpp:67] Creating Layer relu4
I0501 15:01:04.746346 14022 net.cpp:394] relu4 <- conv4
I0501 15:01:04.746356 14022 net.cpp:345] relu4 -> conv4 (in-place)
I0501 15:01:04.746367 14022 net.cpp:96] Setting up relu4
I0501 15:01:04.746377 14022 net.cpp:103] Top shape: 250 384 13 13 (16224000)
I0501 15:01:04.746392 14022 net.cpp:67] Creating Layer conv5
I0501 15:01:04.746399 14022 net.cpp:394] conv5 <- conv4
I0501 15:01:04.746409 14022 net.cpp:356] conv5 -> conv5
I0501 15:01:04.746418 14022 net.cpp:96] Setting up conv5
I0501 15:01:04.761600 14022 net.cpp:103] Top shape: 250 256 13 13 (10816000)
I0501 15:01:04.761649 14022 net.cpp:67] Creating Layer relu5
I0501 15:01:04.761657 14022 net.cpp:394] relu5 <- conv5
I0501 15:01:04.761668 14022 net.cpp:345] relu5 -> conv5 (in-place)
I0501 15:01:04.761678 14022 net.cpp:96] Setting up relu5
I0501 15:01:04.761687 14022 net.cpp:103] Top shape: 250 256 13 13 (10816000)
I0501 15:01:04.761698 14022 net.cpp:67] Creating Layer pool5
I0501 15:01:04.761704 14022 net.cpp:394] pool5 <- conv5
I0501 15:01:04.761711 14022 net.cpp:356] pool5 -> pool5
I0501 15:01:04.761720 14022 net.cpp:96] Setting up pool5
I0501 15:01:04.761730 14022 net.cpp:103] Top shape: 250 256 6 6 (2304000)
I0501 15:01:04.761746 14022 net.cpp:67] Creating Layer fc6
I0501 15:01:04.761752 14022 net.cpp:394] fc6 <- pool5
I0501 15:01:04.761760 14022 net.cpp:356] fc6 -> fc6
I0501 15:01:04.761768 14022 net.cpp:96] Setting up fc6
I0501 15:01:05.993942 14022 net.cpp:103] Top shape: 250 4096 1 1 (1024000)
I0501 15:01:05.994002 14022 net.cpp:67] Creating Layer relu6
I0501 15:01:05.994011 14022 net.cpp:394] relu6 <- fc6
I0501 15:01:05.994024 14022 net.cpp:345] relu6 -> fc6 (in-place)
I0501 15:01:05.994035 14022 net.cpp:96] Setting up relu6
I0501 15:01:05.994055 14022 net.cpp:103] Top shape: 250 4096 1 1 (1024000)
I0501 15:01:05.994065 14022 net.cpp:67] Creating Layer drop6
I0501 15:01:05.994071 14022 net.cpp:394] drop6 <- fc6
I0501 15:01:05.994077 14022 net.cpp:345] drop6 -> fc6 (in-place)
I0501 15:01:05.994084 14022 net.cpp:96] Setting up drop6
I0501 15:01:05.994097 14022 net.cpp:103] Top shape: 250 4096 1 1 (1024000)
I0501 15:01:05.994107 14022 net.cpp:67] Creating Layer fc7
I0501 15:01:05.994127 14022 net.cpp:394] fc7 <- fc6
I0501 15:01:05.994135 14022 net.cpp:356] fc7 -> fc7
I0501 15:01:05.994145 14022 net.cpp:96] Setting up fc7
I0501 15:01:06.542435 14022 net.cpp:103] Top shape: 250 4096 1 1 (1024000)
I0501 15:01:06.542496 14022 net.cpp:67] Creating Layer relu7
I0501 15:01:06.542523 14022 net.cpp:394] relu7 <- fc7
I0501 15:01:06.542536 14022 net.cpp:345] relu7 -> fc7 (in-place)
I0501 15:01:06.542547 14022 net.cpp:96] Setting up relu7
I0501 15:01:06.542569 14022 net.cpp:103] Top shape: 250 4096 1 1 (1024000)
I0501 15:01:06.542577 14022 net.cpp:67] Creating Layer drop7
I0501 15:01:06.542583 14022 net.cpp:394] drop7 <- fc7
I0501 15:01:06.542590 14022 net.cpp:345] drop7 -> fc7 (in-place)
I0501 15:01:06.542598 14022 net.cpp:96] Setting up drop7
I0501 15:01:06.542603 14022 net.cpp:103] Top shape: 250 4096 1 1 (1024000)
I0501 15:01:06.542613 14022 net.cpp:67] Creating Layer fc8_flickr
I0501 15:01:06.542618 14022 net.cpp:394] fc8_flickr <- fc7
I0501 15:01:06.542629 14022 net.cpp:356] fc8_flickr -> fc8_flickr
I0501 15:01:06.542637 14022 net.cpp:96] Setting up fc8_flickr
I0501 15:01:06.542917 14022 net.cpp:103] Top shape: 250 2 1 1 (500)
I0501 15:01:06.542927 14022 net.cpp:67] Creating Layer loss
I0501 15:01:06.542933 14022 net.cpp:394] loss <- fc8_flickr
I0501 15:01:06.542940 14022 net.cpp:394] loss <- label
I0501 15:01:06.542950 14022 net.cpp:356] loss -> (automatic)
I0501 15:01:06.542959 14022 net.cpp:96] Setting up loss
I0501 15:01:06.542968 14022 net.cpp:103] Top shape: 1 1 1 1 (1)
I0501 15:01:06.542973 14022 net.cpp:109]     with loss weight 1
I0501 15:01:06.543016 14022 net.cpp:170] loss needs backward computation.
I0501 15:01:06.543022 14022 net.cpp:170] fc8_flickr needs backward computation.
I0501 15:01:06.543028 14022 net.cpp:170] drop7 needs backward computation.
I0501 15:01:06.543033 14022 net.cpp:170] relu7 needs backward computation.
I0501 15:01:06.543038 14022 net.cpp:170] fc7 needs backward computation.
…
I0501 15:01:06.544183 14022 net.cpp:67] Creating Layer data
I0501 15:01:06.544193 14022 net.cpp:356] data -> data
I0501 15:01:06.544204 14022 net.cpp:356] data -> label
I0501 15:01:06.544212 14022 net.cpp:96] Setting up data
I0501 15:01:06.544219 14022 image_data_layer.cpp:31] Opening file /home/ubuntu/Kaggle/valt8.csv
I0501 15:01:06.548638 14022 image_data_layer.cpp:48] A total of 10263 images.
"I0501 15:01:06.551455 14022 image_data_layer.cpp:78] output data size: 250,3,227,227"
I0501 15:01:06.551479 14022 base_data_layer.cpp:36] Loading mean file fromdata/ilsvrc12/imagenet_mean.binaryproto
I0501 15:01:06.589540 14022 net.cpp:103] Top shape: 250 3 227 227 (38646750)
I0501 15:01:06.589586 14022 net.cpp:103] Top shape: 250 1 1 1 (250)
I0501 15:01:06.589604 14022 net.cpp:67] Creating Layer label_data_1_split
I0501 15:01:06.589612 14022 net.cpp:394] label_data_1_split <- label
I0501 15:01:06.589622 14022 net.cpp:356] label_data_1_split -> label_data_1_split_0
I0501 15:01:06.589642 14022 net.cpp:356] label_data_1_split -> label_data_1_split_1
I0501 15:01:06.589650 14022 net.cpp:96] Setting up label_data_1_split
I0501 15:01:06.589663 14022 net.cpp:103] Top shape: 250 1 1 1 (250)
I0501 15:01:06.589669 14022 net.cpp:103] Top shape: 250 1 1 1 (250)
I0501 15:01:06.589692 14022 net.cpp:67] Creating Layer conv1
I0501 15:01:06.589699 14022 net.cpp:394] conv1 <- data
I0501 15:01:06.589709 14022 net.cpp:356] conv1 -> conv1
I0501 15:01:06.589722 14022 net.cpp:96] Setting up conv1
I0501 15:01:06.590963 14022 net.cpp:103] Top shape: 250 96 55 55 (72600000)
I0501 15:01:06.590986 14022 net.cpp:67] Creating Layer relu1
I0501 15:01:06.590993 14022 net.cpp:394] relu1 <- conv1
I0501 15:01:06.591001 14022 net.cpp:345] relu1 -> conv1 (in-place)
I0501 15:01:06.591009 14022 net.cpp:96] Setting up relu1
I0501 15:01:06.591018 14022 net.cpp:103] Top shape: 250 96 55 55 (72600000)
I0501 15:01:06.591028 14022 net.cpp:67] Creating Layer pool1
I0501 15:01:06.591033 14022 net.cpp:394] pool1 <- conv1
I0501 15:01:06.591042 14022 net.cpp:356] pool1 -> pool1
I0501 15:01:06.591049 14022 net.cpp:96] Setting up pool1
I0501 15:01:06.591059 14022 net.cpp:103] Top shape: 250 96 27 27 (17496000)
I0501 15:01:06.591069 14022 net.cpp:67] Creating Layer norm1
I0501 15:01:06.591074 14022 net.cpp:394] norm1 <- pool1
I0501 15:01:06.591083 14022 net.cpp:356] norm1 -> norm1
I0501 15:01:06.591090 14022 net.cpp:96] Setting up norm1
I0501 15:01:06.591096 14022 net.cpp:103] Top shape: 250 96 27 27 (17496000)
I0501 15:01:06.591106 14022 net.cpp:67] Creating Layer conv2
I0501 15:01:06.591112 14022 net.cpp:394] conv2 <- norm1
I0501 15:01:06.591120 14022 net.cpp:356] conv2 -> conv2
I0501 15:01:06.591128 14022 net.cpp:96] Setting up conv2
I0501 15:01:06.602519 14022 net.cpp:103] Top shape: 250 256 27 27 (46656000)
I0501 15:01:06.602578 14022 net.cpp:67] Creating Layer relu2
I0501 15:01:06.602587 14022 net.cpp:394] relu2 <- conv2
I0501 15:01:06.602597 14022 net.cpp:345] relu2 -> conv2 (in-place)
I0501 15:01:06.602608 14022 net.cpp:96] Setting up relu2
I0501 15:01:06.602618 14022 net.cpp:103] Top shape: 250 256 27 27 (46656000)
I0501 15:01:06.602632 14022 net.cpp:67] Creating Layer pool2
I0501 15:01:06.602638 14022 net.cpp:394] pool2 <- conv2
I0501 15:01:06.602645 14022 net.cpp:356] pool2 -> pool2
I0501 15:01:06.602654 14022 net.cpp:96] Setting up pool2
I0501 15:01:06.602665 14022 net.cpp:103] Top shape: 250 256 13 13 (10816000)
I0501 15:01:06.602677 14022 net.cpp:67] Creating Layer norm2
I0501 15:01:06.602684 14022 net.cpp:394] norm2 <- pool2
I0501 15:01:06.602704 14022 net.cpp:356] norm2 -> norm2
I0501 15:01:06.602712 14022 net.cpp:96] Setting up norm2
I0501 15:01:06.602720 14022 net.cpp:103] Top shape: 250 256 13 13 (10816000)
I0501 15:01:06.602731 14022 net.cpp:67] Creating Layer conv3
I0501 15:01:06.602736 14022 net.cpp:394] conv3 <- norm2
I0501 15:01:06.602756 14022 net.cpp:356] conv3 -> conv3
I0501 15:01:06.602766 14022 net.cpp:96] Setting up conv3
I0501 15:01:06.632078 14022 net.cpp:103] Top shape: 250 384 13 13 (16224000)
I0501 15:01:06.632134 14022 net.cpp:67] Creating Layer relu3
I0501 15:01:06.632143 14022 net.cpp:394] relu3 <- conv3
I0501 15:01:06.632153 14022 net.cpp:345] relu3 -> conv3 (in-place)
I0501 15:01:06.632164 14022 net.cpp:96] Setting up relu3
I0501 15:01:06.632174 14022 net.cpp:103] Top shape: 250 384 13 13 (16224000)
I0501 15:01:06.632185 14022 net.cpp:67] Creating Layer conv4
I0501 15:01:06.632192 14022 net.cpp:394] conv4 <- conv3
I0501 15:01:06.632200 14022 net.cpp:356] conv4 -> conv4
I0501 15:01:06.632208 14022 net.cpp:96] Setting up conv4
I0501 15:01:06.654633 14022 net.cpp:103] Top shape: 250 384 13 13 (16224000)
I0501 15:01:06.654685 14022 net.cpp:67] Creating Layer relu4
I0501 15:01:06.654692 14022 net.cpp:394] relu4 <- conv4
I0501 15:01:06.654706 14022 net.cpp:345] relu4 -> conv4 (in-place)
I0501 15:01:06.654716 14022 net.cpp:96] Setting up relu4
I0501 15:01:06.654726 14022 net.cpp:103] Top shape: 250 384 13 13 (16224000)
I0501 15:01:06.654736 14022 net.cpp:67] Creating Layer conv5
I0501 15:01:06.654742 14022 net.cpp:394] conv5 <- conv4
I0501 15:01:06.654757 14022 net.cpp:356] conv5 -> conv5
I0501 15:01:06.654767 14022 net.cpp:96] Setting up conv5
I0501 15:01:06.669921 14022 net.cpp:103] Top shape: 250 256 13 13 (10816000)
I0501 15:01:06.669982 14022 net.cpp:67] Creating Layer relu5
I0501 15:01:06.669991 14022 net.cpp:394] relu5 <- conv5
I0501 15:01:06.670001 14022 net.cpp:345] relu5 -> conv5 (in-place)
I0501 15:01:06.670011 14022 net.cpp:96] Setting up relu5
I0501 15:01:06.670022 14022 net.cpp:103] Top shape: 250 256 13 13 (10816000)
I0501 15:01:06.670035 14022 net.cpp:67] Creating Layer pool5
I0501 15:01:06.670042 14022 net.cpp:394] pool5 <- conv5
I0501 15:01:06.670049 14022 net.cpp:356] pool5 -> pool5
I0501 15:01:06.670058 14022 net.cpp:96] Setting up pool5
I0501 15:01:06.670069 14022 net.cpp:103] Top shape: 250 256 6 6 (2304000)
I0501 15:01:06.670080 14022 net.cpp:67] Creating Layer fc6
I0501 15:01:06.670086 14022 net.cpp:394] fc6 <- pool5
I0501 15:01:06.670096 14022 net.cpp:356] fc6 -> fc6
I0501 15:01:06.670109 14022 net.cpp:96] Setting up fc6
I0501 15:01:07.897177 14022 net.cpp:103] Top shape: 250 4096 1 1 (1024000)
I0501 15:01:07.897239 14022 net.cpp:67] Creating Layer relu6
I0501 15:01:07.897248 14022 net.cpp:394] relu6 <- fc6
I0501 15:01:07.897261 14022 net.cpp:345] relu6 -> fc6 (in-place)
I0501 15:01:07.897272 14022 net.cpp:96] Setting up relu6
I0501 15:01:07.897294 14022 net.cpp:103] Top shape: 250 4096 1 1 (1024000)
I0501 15:01:07.897302 14022 net.cpp:67] Creating Layer drop6
I0501 15:01:07.897308 14022 net.cpp:394] drop6 <- fc6
I0501 15:01:07.897315 14022 net.cpp:345] drop6 -> fc6 (in-place)
I0501 15:01:07.897322 14022 net.cpp:96] Setting up drop6
I0501 15:01:07.897330 14022 net.cpp:103] Top shape: 250 4096 1 1 (1024000)
I0501 15:01:07.897339 14022 net.cpp:67] Creating Layer fc7
I0501 15:01:07.897344 14022 net.cpp:394] fc7 <- fc6
I0501 15:01:07.897352 14022 net.cpp:356] fc7 -> fc7
I0501 15:01:07.897361 14022 net.cpp:96] Setting up fc7
I0501 15:01:08.447242 14022 net.cpp:103] Top shape: 250 4096 1 1 (1024000)
I0501 15:01:08.447312 14022 net.cpp:67] Creating Layer relu7
I0501 15:01:08.447324 14022 net.cpp:394] relu7 <- fc7
I0501 15:01:08.447337 14022 net.cpp:345] relu7 -> fc7 (in-place)
I0501 15:01:08.447350 14022 net.cpp:96] Setting up relu7
I0501 15:01:08.447371 14022 net.cpp:103] Top shape: 250 4096 1 1 (1024000)
I0501 15:01:08.447381 14022 net.cpp:67] Creating Layer drop7
I0501 15:01:08.447386 14022 net.cpp:394] drop7 <- fc7
I0501 15:01:08.447392 14022 net.cpp:345] drop7 -> fc7 (in-place)
I0501 15:01:08.447419 14022 net.cpp:96] Setting up drop7
I0501 15:01:08.447427 14022 net.cpp:103] Top shape: 250 4096 1 1 (1024000)
I0501 15:01:08.447435 14022 net.cpp:67] Creating Layer fc8_flickr
I0501 15:01:08.447440 14022 net.cpp:394] fc8_flickr <- fc7
I0501 15:01:08.447451 14022 net.cpp:356] fc8_flickr -> fc8_flickr
I0501 15:01:08.447477 14022 net.cpp:96] Setting up fc8_flickr
I0501 15:01:08.447773 14022 net.cpp:103] Top shape: 250 2 1 1 (500)
I0501 15:01:08.447787 14022 net.cpp:67] Creating Layer fc8_flickr_fc8_flickr_0_split
I0501 15:01:08.447793 14022 net.cpp:394] fc8_flickr_fc8_flickr_0_split <- fc8_flickr
I0501 15:01:08.447803 14022 net.cpp:356] fc8_flickr_fc8_flickr_0_split -> fc8_flickr_fc8_flickr_0_split_0
I0501 15:01:08.447811 14022 net.cpp:356] fc8_flickr_fc8_flickr_0_split -> fc8_flickr_fc8_flickr_0_split_1
I0501 15:01:08.447818 14022 net.cpp:96] Setting up fc8_flickr_fc8_flickr_0_split
I0501 15:01:08.447825 14022 net.cpp:103] Top shape: 250 2 1 1 (500)
I0501 15:01:08.447830 14022 net.cpp:103] Top shape: 250 2 1 1 (500)
I0501 15:01:08.447837 14022 net.cpp:67] Creating Layer loss
I0501 15:01:08.447842 14022 net.cpp:394] loss <- fc8_flickr_fc8_flickr_0_split_0
I0501 15:01:08.447849 14022 net.cpp:394] loss <- label_data_1_split_0
I0501 15:01:08.447859 14022 net.cpp:356] loss -> (automatic)
I0501 15:01:08.447865 14022 net.cpp:96] Setting up loss
I0501 15:01:08.447871 14022 net.cpp:103] Top shape: 1 1 1 1 (1)
I0501 15:01:08.447877 14022 net.cpp:109]     with loss weight 1
I0501 15:01:08.447896 14022 net.cpp:67] Creating Layer accuracy
I0501 15:01:08.447902 14022 net.cpp:394] accuracy <- fc8_flickr_fc8_flickr_0_split_1
I0501 15:01:08.447908 14022 net.cpp:394] accuracy <- label_data_1_split_1
I0501 15:01:08.447916 14022 net.cpp:356] accuracy -> accuracy
I0501 15:01:08.447923 14022 net.cpp:96] Setting up accuracy
I0501 15:01:08.447929 14022 net.cpp:103] Top shape: 1 1 1 1 (1)
I0501 15:01:08.447934 14022 net.cpp:172] accuracy does not need backward computation.
I0501 15:01:08.447939 14022 net.cpp:170] loss needs backward computation.
I0501 15:01:08.447945 14022 net.cpp:170] fc8_flickr_fc8_flickr_0_split needs backward computation.
I0501 15:01:08.447950 14022 net.cpp:170] fc8_flickr needs backward computation.
I0501 15:01:08.447955 14022 net.cpp:170] drop7 needs backward computation.
…
